…
    Max Swap :                                   2 MB
    Max Processes :                              21
    Max Threads :                                475
    Run time :                                   172824 sec.
    Turnaround time :                            309167 sec.

The output (if any) follows:

__________________________________________________________________________________________________
Layer (type)                    Output Shape         Param #     Connected to                     
==================================================================================================
input_1 (InputLayer)            (None, 512, 512, 3)  0                                            
__________________________________________________________________________________________________
zero_padding2d_1 (ZeroPadding2D (None, 518, 518, 3)  0           input_1[0][0]                    
__________________________________________________________________________________________________
conv1/conv (Conv2D)             (None, 256, 256, 64) 9408        zero_padding2d_1[0][0]           
__________________________________________________________________________________________________
conv1/bn (BatchNormalization)   (None, 256, 256, 64) 256         conv1/conv[0][0]                 
__________________________________________________________________________________________________
conv1/relu (Activation)         (None, 256, 256, 64) 0           conv1/bn[0][0]                   
__________________________________________________________________________________________________
zero_padding2d_2 (ZeroPadding2D (None, 258, 258, 64) 0           conv1/relu[0][0]                 
__________________________________________________________________________________________________
pool1 (MaxPooling2D)            (None, 128, 128, 64) 0           zero_padding2d_2[0][0]           
__________________________________________________________________________________________________
conv2_block1_0_bn (BatchNormali (None, 128, 128, 64) 256         pool1[0][0]                      
__________________________________________________________________________________________________
conv2_block1_0_relu (Activation (None, 128, 128, 64) 0           conv2_block1_0_bn[0][0]          
__________________________________________________________________________________________________
conv2_block1_1_conv (Conv2D)    (None, 128, 128, 128 8192        conv2_block1_0_relu[0][0]        
__________________________________________________________________________________________________
conv2_block1_1_bn (BatchNormali (None, 128, 128, 128 512         conv2_block1_1_conv[0][0]        
__________________________________________________________________________________________________
conv2_block1_1_relu (Activation (None, 128, 128, 128 0           conv2_block1_1_bn[0][0]          
__________________________________________________________________________________________________
conv2_block1_2_conv (Conv2D)    (None, 128, 128, 32) 36864       conv2_block1_1_relu[0][0]        
__________________________________________________________________________________________________
conv2_block1_concat (Concatenat (None, 128, 128, 96) 0           pool1[0][0]                      
                                                                 conv2_block1_2_conv[0][0]        
__________________________________________________________________________________________________
conv2_block2_0_bn (BatchNormali (None, 128, 128, 96) 384         conv2_block1_concat[0][0]        
__________________________________________________________________________________________________
conv2_block2_0_relu (Activation (None, 128, 128, 96) 0           conv2_block2_0_bn[0][0]          
__________________________________________________________________________________________________
conv2_block2_1_conv (Conv2D)    (None, 128, 128, 128 12288       conv2_block2_0_relu[0][0]        
__________________________________________________________________________________________________
conv2_block2_1_bn (BatchNormali (None, 128, 128, 128 512         conv2_block2_1_conv[0][0]        
__________________________________________________________________________________________________
conv2_block2_1_relu (Activation (None, 128, 128, 128 0           conv2_block2_1_bn[0][0]          
__________________________________________________________________________________________________
conv2_block2_2_conv (Conv2D)    (None, 128, 128, 32) 36864       conv2_block2_1_relu[0][0]        
__________________________________________________________________________________________________
conv2_block2_concat (Concatenat (None, 128, 128, 128 0           conv2_block1_concat[0][0]        
                                                                 conv2_block2_2_conv[0][0]        
__________________________________________________________________________________________________
…
pool2_bn (BatchNormalization)   (None, 128, 128, 256 1024        conv2_block6_concat[0][0]        
__________________________________________________________________________________________________
pool2_relu (Activation)         (None, 128, 128, 256 0           pool2_bn[0][0]                   
__________________________________________________________________________________________________
pool2_conv (Conv2D)             (None, 128, 128, 128 32768       pool2_relu[0][0]                 
__________________________________________________________________________________________________
pool2_pool (AveragePooling2D)   (None, 64, 64, 128)  0           pool2_conv[0][0]                 
__________________________________________________________________________________________________
conv3_block1_0_bn (BatchNormali (None, 64, 64, 128)  512         pool2_pool[0][0]                 
__________________________________________________________________________________________________
conv3_block1_0_relu (Activation (None, 64, 64, 128)  0           conv3_block1_0_bn[0][0]          
__________________________________________________________________________________________________
conv3_block1_1_conv (Conv2D)    (None, 64, 64, 128)  16384       conv3_block1_0_relu[0][0]        
__________________________________________________________________________________________________
conv3_block1_1_bn (BatchNormali (None, 64, 64, 128)  512         conv3_block1_1_conv[0][0]        
__________________________________________________________________________________________________
conv3_block1_1_relu (Activation (None, 64, 64, 128)  0           conv3_block1_1_bn[0][0]          
__________________________________________________________________________________________________
conv3_block1_2_conv (Conv2D)    (None, 64, 64, 32)   36864       conv3_block1_1_relu[0][0]        
__________________________________________________________________________________________________
conv3_block1_concat (Concatenat (None, 64, 64, 160)  0           pool2_pool[0][0]                 
                                                                 conv3_block1_2_conv[0][0]        
__________________________________________________________________________________________________
conv3_block2_0_bn (BatchNormali (None, 64, 64, 160)  640         conv3_block1_concat[0][0]        
__________________________________________________________________________________________________
conv3_block2_0_relu (Activation (None, 64, 64, 160)  0           conv3_block2_0_bn[0][0]          
__________________________________________________________________________________________________
conv3_block2_1_conv (Conv2D)    (None, 64, 64, 128)  20480       conv3_block2_0_relu[0][0]        
__________________________________________________________________________________________________
conv3_block2_1_bn (BatchNormali (None, 64, 64, 128)  512         conv3_block2_1_conv[0][0]        
__________________________________________________________________________________________________
conv3_block2_1_relu (Activation (None, 64, 64, 128)  0           conv3_block2_1_bn[0][0]          
__________________________________________________________________________________________________
conv3_block2_2_conv (Conv2D)    (None, 64, 64, 32)   36864       conv3_block2_1_relu[0][0]        
__________________________________________________________________________________________________
conv3_block2_concat (Concatenat (None, 64, 64, 192)  0           conv3_block1_concat[0][0]        
                                                                 conv3_block2_2_conv[0][0]        
__________________________________________________________________________________________________
conv3_block3_0_bn (BatchNormali (None, 64, 64, 192)  768         conv3_block2_concat[0][0]        
__________________________________________________________________________________________________
conv3_block3_0_relu (Activation (None, 64, 64, 192)  0           conv3_block3_0_bn[0][0]          
__________________________________________________________________________________________________
conv3_block3_1_conv (Conv2D)    (None, 64, 64, 128)  24576       conv3_block3_0_relu[0][0]        
__________________________________________________________________________________________________
conv3_block3_1_bn (BatchNormali (None, 64, 64, 128)  512         conv3_block3_1_conv[0][0]        
__________________________________________________________________________________________________
conv3_block3_1_relu (Activation (None, 64, 64, 128)  0           conv3_block3_1_bn[0][0]          
__________________________________________________________________________________________________
conv3_block3_2_conv (Conv2D)    (None, 64, 64, 32)   36864       conv3_block3_1_relu[0][0]        
__________________________________________________________________________________________________
conv3_block3_concat (Concatenat (None, 64, 64, 224)  0           conv3_block2_concat[0][0]        
                                                                 conv3_block3_2_conv[0][0]        
__________________________________________________________________________________________________
conv3_block4_0_bn (BatchNormali (None, 64, 64, 224)  896         conv3_block3_concat[0][0]        
__________________________________________________________________________________________________
conv3_block4_0_relu (Activation (None, 64, 64, 224)  0           conv3_block4_0_bn[0][0]          
__________________________________________________________________________________________________
conv3_block4_1_conv (Conv2D)    (None, 64, 64, 128)  28672       conv3_block4_0_relu[0][0]        
__________________________________________________________________________________________________
conv3_block4_1_bn (BatchNormali (None, 64, 64, 128)  512         conv3_block4_1_conv[0][0]        
__________________________________________________________________________________________________
conv3_block4_1_relu (Activation (None, 64, 64, 128)  0           conv3_block4_1_bn[0][0]          
__________________________________________________________________________________________________
conv3_block4_2_conv (Conv2D)    (None, 64, 64, 32)   36864       conv3_block4_1_relu[0][0]        
__________________________________________________________________________________________________
conv3_block4_concat (Concatenat (None, 64, 64, 256)  0           conv3_block3_concat[0][0]        
                                                                 conv3_block4_2_conv[0][0]        
__________________________________________________________________________________________________
conv3_block5_0_bn (BatchNormali (None, 64, 64, 256)  1024        conv3_block4_concat[0][0]        
__________________________________________________________________________________________________
conv3_block5_0_relu (Activation (None, 64, 64, 256)  0           conv3_block5_0_bn[0][0]          
__________________________________________________________________________________________________
conv3_block5_1_conv (Conv2D)    (None, 64, 64, 128)  32768       conv3_block5_0_relu[0][0]        
__________________________________________________________________________________________________
conv3_block5_1_bn (BatchNormali (None, 64, 64, 128)  512         conv3_block5_1_conv[0][0]        
__________________________________________________________________________________________________
conv3_block5_1_relu (Activation (None, 64, 64, 128)  0           conv3_block5_1_bn[0][0]          
__________________________________________________________________________________________________
conv3_block5_2_conv (Conv2D)    (None, 64, 64, 32)   36864       conv3_block5_1_relu[0][0]        
__________________________________________________________________________________________________
conv3_block5_concat (Concatenat (None, 64, 64, 288)  0           conv3_block4_concat[0][0]        
                                                                 conv3_block5_2_conv[0][0]        
__________________________________________________________________________________________________
conv3_block6_0_bn (BatchNormali (None, 64, 64, 288)  1152        conv3_block5_concat[0][0]        
__________________________________________________________________________________________________
conv3_block6_0_relu (Activation (None, 64, 64, 288)  0           conv3_block6_0_bn[0][0]          
__________________________________________________________________________________________________
conv3_block6_1_conv (Conv2D)    (None, 64, 64, 128)  36864       conv3_block6_0_relu[0][0]        
__________________________________________________________________________________________________
conv3_block6_1_bn (BatchNormali (None, 64, 64, 128)  512         conv3_block6_1_conv[0][0]        
__________________________________________________________________________________________________
conv3_block6_1_relu (Activation (None, 64, 64, 128)  0           conv3_block6_1_bn[0][0]          
__________________________________________________________________________________________________
conv3_block6_2_conv (Conv2D)    (None, 64, 64, 32)   36864       conv3_block6_1_relu[0][0]        
__________________________________________________________________________________________________
conv3_block6_concat (Concatenat (None, 64, 64, 320)  0           conv3_block5_concat[0][0]        
                                                                 conv3_block6_2_conv[0][0]        
__________________________________________________________________________________________________
conv3_block7_0_bn (BatchNormali (None, 64, 64, 320)  1280        conv3_block6_concat[0][0]        
__________________________________________________________________________________________________
conv3_block7_0_relu (Activation (None, 64, 64, 320)  0           conv3_block7_0_bn[0][0]          
__________________________________________________________________________________________________
conv3_block7_1_conv (Conv2D)    (None, 64, 64, 128)  40960       conv3_block7_0_relu[0][0]        
__________________________________________________________________________________________________
conv3_block7_1_bn (BatchNormali (None, 64, 64, 128)  512         conv3_block7_1_conv[0][0]        
__________________________________________________________________________________________________
conv3_block7_1_relu (Activation (None, 64, 64, 128)  0           conv3_block7_1_bn[0][0]          
__________________________________________________________________________________________________
conv3_block7_2_conv (Conv2D)    (None, 64, 64, 32)   36864       conv3_block7_1_relu[0][0]        
__________________________________________________________________________________________________
conv3_block7_concat (Concatenat (None, 64, 64, 352)  0           conv3_block6_concat[0][0]        
                                                                 conv3_block7_2_conv[0][0]        
__________________________________________________________________________________________________
conv3_block8_0_bn (BatchNormali (None, 64, 64, 352)  1408        conv3_block7_concat[0][0]        
__________________________________________________________________________________________________
conv3_block8_0_relu (Activation (None, 64, 64, 352)  0           conv3_block8_0_bn[0][0]          
__________________________________________________________________________________________________
conv3_block8_1_conv (Conv2D)    (None, 64, 64, 128)  45056       conv3_block8_0_relu[0][0]        
__________________________________________________________________________________________________
conv3_block8_1_bn (BatchNormali (None, 64, 64, 128)  512         conv3_block8_1_conv[0][0]        
__________________________________________________________________________________________________
conv3_block8_1_relu (Activation (None, 64, 64, 128)  0           conv3_block8_1_bn[0][0]          
__________________________________________________________________________________________________
conv3_block8_2_conv (Conv2D)    (None, 64, 64, 32)   36864       conv3_block8_1_relu[0][0]        
__________________________________________________________________________________________________
conv3_block8_concat (Concatenat (None, 64, 64, 384)  0           conv3_block7_concat[0][0]        
                                                                 conv3_block8_2_conv[0][0]        
__________________________________________________________________________________________________
conv3_block9_0_bn (BatchNormali (None, 64, 64, 384)  1536        conv3_block8_concat[0][0]        
__________________________________________________________________________________________________
conv3_block9_0_relu (Activation (None, 64, 64, 384)  0           conv3_block9_0_bn[0][0]          
__________________________________________________________________________________________________
conv3_block9_1_conv (Conv2D)    (None, 64, 64, 128)  49152       conv3_block9_0_relu[0][0]        
__________________________________________________________________________________________________
conv3_block9_1_bn (BatchNormali (None, 64, 64, 128)  512         conv3_block9_1_conv[0][0]        
__________________________________________________________________________________________________
conv3_block9_1_relu (Activation (None, 64, 64, 128)  0           conv3_block9_1_bn[0][0]          
__________________________________________________________________________________________________
conv3_block9_2_conv (Conv2D)    (None, 64, 64, 32)   36864       conv3_block9_1_relu[0][0]        
__________________________________________________________________________________________________
conv3_block9_concat (Concatenat (None, 64, 64, 416)  0           conv3_block8_concat[0][0]        
                                                                 conv3_block9_2_conv[0][0]        
__________________________________________________________________________________________________
conv3_block10_0_bn (BatchNormal (None, 64, 64, 416)  1664        conv3_block9_concat[0][0]        
__________________________________________________________________________________________________
conv3_block10_0_relu (Activatio (None, 64, 64, 416)  0           conv3_block10_0_bn[0][0]         
__________________________________________________________________________________________________
conv3_block10_1_conv (Conv2D)   (None, 64, 64, 128)  53248       conv3_block10_0_relu[0][0]       
__________________________________________________________________________________________________
conv3_block10_1_bn (BatchNormal (None, 64, 64, 128)  512         conv3_block10_1_conv[0][0]       
__________________________________________________________________________________________________
conv3_block10_1_relu (Activatio (None, 64, 64, 128)  0           conv3_block10_1_bn[0][0]         
__________________________________________________________________________________________________
conv3_block10_2_conv (Conv2D)   (None, 64, 64, 32)   36864       conv3_block10_1_relu[0][0]       
__________________________________________________________________________________________________
conv3_block10_concat (Concatena (None, 64, 64, 448)  0           conv3_block9_concat[0][0]        
                                                                 conv3_block10_2_conv[0][0]       
__________________________________________________________________________________________________
conv3_block11_0_bn (BatchNormal (None, 64, 64, 448)  1792        conv3_block10_concat[0][0]       
__________________________________________________________________________________________________
conv3_block11_0_relu (Activatio (None, 64, 64, 448)  0           conv3_block11_0_bn[0][0]         
__________________________________________________________________________________________________
conv3_block11_1_conv (Conv2D)   (None, 64, 64, 128)  57344       conv3_block11_0_relu[0][0]       
__________________________________________________________________________________________________
conv3_block11_1_bn (BatchNormal (None, 64, 64, 128)  512         conv3_block11_1_conv[0][0]       
__________________________________________________________________________________________________
conv3_block11_1_relu (Activatio (None, 64, 64, 128)  0           conv3_block11_1_bn[0][0]         
__________________________________________________________________________________________________
conv3_block11_2_conv (Conv2D)   (None, 64, 64, 32)   36864       conv3_block11_1_relu[0][0]       
__________________________________________________________________________________________________
conv3_block11_concat (Concatena (None, 64, 64, 480)  0           conv3_block10_concat[0][0]       
                                                                 conv3_block11_2_conv[0][0]       
__________________________________________________________________________________________________
conv3_block12_0_bn (BatchNormal (None, 64, 64, 480)  1920        conv3_block11_concat[0][0]       
__________________________________________________________________________________________________
conv3_block12_0_relu (Activatio (None, 64, 64, 480)  0           conv3_block12_0_bn[0][0]         
__________________________________________________________________________________________________
conv3_block12_1_conv (Conv2D)   (None, 64, 64, 128)  61440       conv3_block12_0_relu[0][0]       
__________________________________________________________________________________________________
conv3_block12_1_bn (BatchNormal (None, 64, 64, 128)  512         conv3_block12_1_conv[0][0]       
__________________________________________________________________________________________________
conv3_block12_1_relu (Activatio (None, 64, 64, 128)  0           conv3_block12_1_bn[0][0]         
__________________________________________________________________________________________________
conv3_block12_2_conv (Conv2D)   (None, 64, 64, 32)   36864       conv3_block12_1_relu[0][0]       
__________________________________________________________________________________________________
conv3_block12_concat (Concatena (None, 64, 64, 512)  0           conv3_block11_concat[0][0]       
                                                                 conv3_block12_2_conv[0][0]       
__________________________________________________________________________________________________
pool3_bn (BatchNormalization)   (None, 64, 64, 512)  2048        conv3_block12_concat[0][0]       
__________________________________________________________________________________________________
pool3_relu (Activation)         (None, 64, 64, 512)  0           pool3_bn[0][0]                   
__________________________________________________________________________________________________
pool3_conv (Conv2D)             (None, 64, 64, 256)  131072      pool3_relu[0][0]                 
__________________________________________________________________________________________________
pool3_pool (AveragePooling2D)   (None, 32, 32, 256)  0           pool3_conv[0][0]                 
__________________________________________________________________________________________________
conv4_block1_0_bn (BatchNormali (None, 32, 32, 256)  1024        pool3_pool[0][0]                 
__________________________________________________________________________________________________
conv4_block1_0_relu (Activation (None, 32, 32, 256)  0           conv4_block1_0_bn[0][0]          
__________________________________________________________________________________________________
conv4_block1_1_conv (Conv2D)    (None, 32, 32, 128)  32768       conv4_block1_0_relu[0][0]        
__________________________________________________________________________________________________
conv4_block1_1_bn (BatchNormali (None, 32, 32, 128)  512         conv4_block1_1_conv[0][0]        
__________________________________________________________________________________________________
conv4_block1_1_relu (Activation (None, 32, 32, 128)  0           conv4_block1_1_bn[0][0]          
__________________________________________________________________________________________________
conv4_block1_2_conv (Conv2D)    (None, 32, 32, 32)   36864       conv4_block1_1_relu[0][0]        
__________________________________________________________________________________________________
conv4_block1_concat (Concatenat (None, 32, 32, 288)  0           pool3_pool[0][0]                 
                                                                 conv4_block1_2_conv[0][0]        
__________________________________________________________________________________________________
conv4_block2_0_bn (BatchNormali (None, 32, 32, 288)  1152        conv4_block1_concat[0][0]        
__________________________________________________________________________________________________
conv4_block2_0_relu (Activation (None, 32, 32, 288)  0           conv4_block2_0_bn[0][0]          
__________________________________________________________________________________________________
conv4_block2_1_conv (Conv2D)    (None, 32, 32, 128)  36864       conv4_block2_0_relu[0][0]        
__________________________________________________________________________________________________
conv4_block2_1_bn (BatchNormali (None, 32, 32, 128)  512         conv4_block2_1_conv[0][0]        
__________________________________________________________________________________________________
conv4_block2_1_relu (Activation (None, 32, 32, 128)  0           conv4_block2_1_bn[0][0]          
__________________________________________________________________________________________________
conv4_block2_2_conv (Conv2D)    (None, 32, 32, 32)   36864       conv4_block2_1_relu[0][0]        
__________________________________________________________________________________________________
conv4_block2_concat (Concatenat (None, 32, 32, 320)  0           conv4_block1_concat[0][0]        
                                                                 conv4_block2_2_conv[0][0]        
__________________________________________________________________________________________________
conv4_block3_0_bn (BatchNormali (None, 32, 32, 320)  1280        conv4_block2_concat[0][0]        
__________________________________________________________________________________________________
conv4_block3_0_relu (Activation (None, 32, 32, 320)  0           conv4_block3_0_bn[0][0]          
__________________________________________________________________________________________________
conv4_block3_1_conv (Conv2D)    (None, 32, 32, 128)  40960       conv4_block3_0_relu[0][0]        
__________________________________________________________________________________________________
conv4_block3_1_bn (BatchNormali (None, 32, 32, 128)  512         conv4_block3_1_conv[0][0]        
__________________________________________________________________________________________________
conv4_block3_1_relu (Activation (None, 32, 32, 128)  0           conv4_block3_1_bn[0][0]          
__________________________________________________________________________________________________
conv4_block3_2_conv (Conv2D)    (None, 32, 32, 32)   36864       conv4_block3_1_relu[0][0]        
__________________________________________________________________________________________________
conv4_block3_concat (Concatenat (None, 32, 32, 352)  0           conv4_block2_concat[0][0]        
                                                                 conv4_block3_2_conv[0][0]        
__________________________________________________________________________________________________
conv4_block4_0_bn (BatchNormali (None, 32, 32, 352)  1408        conv4_block3_concat[0][0]        
__________________________________________________________________________________________________
conv4_block4_0_relu (Activation (None, 32, 32, 352)  0           conv4_block4_0_bn[0][0]          
__________________________________________________________________________________________________
conv4_block4_1_conv (Conv2D)    (None, 32, 32, 128)  45056       conv4_block4_0_relu[0][0]        
__________________________________________________________________________________________________
conv4_block4_1_bn (BatchNormali (None, 32, 32, 128)  512         conv4_block4_1_conv[0][0]        
__________________________________________________________________________________________________
conv4_block4_1_relu (Activation (None, 32, 32, 128)  0           conv4_block4_1_bn[0][0]          
__________________________________________________________________________________________________
conv4_block4_2_conv (Conv2D)    (None, 32, 32, 32)   36864       conv4_block4_1_relu[0][0]        
__________________________________________________________________________________________________
conv4_block4_concat (Concatenat (None, 32, 32, 384)  0           conv4_block3_concat[0][0]        
                                                                 conv4_block4_2_conv[0][0]        
__________________________________________________________________________________________________
conv4_block5_0_bn (BatchNormali (None, 32, 32, 384)  1536        conv4_block4_concat[0][0]        
__________________________________________________________________________________________________
conv4_block5_0_relu (Activation (None, 32, 32, 384)  0           conv4_block5_0_bn[0][0]          
__________________________________________________________________________________________________
conv4_block5_1_conv (Conv2D)    (None, 32, 32, 128)  49152       conv4_block5_0_relu[0][0]        
__________________________________________________________________________________________________
conv4_block5_1_bn (BatchNormali (None, 32, 32, 128)  512         conv4_block5_1_conv[0][0]        
__________________________________________________________________________________________________
conv4_block5_1_relu (Activation (None, 32, 32, 128)  0           conv4_block5_1_bn[0][0]          
__________________________________________________________________________________________________
conv4_block5_2_conv (Conv2D)    (None, 32, 32, 32)   36864       conv4_block5_1_relu[0][0]        
__________________________________________________________________________________________________
conv4_block5_concat (Concatenat (None, 32, 32, 416)  0           conv4_block4_concat[0][0]        
                                                                 conv4_block5_2_conv[0][0]        
__________________________________________________________________________________________________
conv4_block6_0_bn (BatchNormali (None, 32, 32, 416)  1664        conv4_block5_concat[0][0]        
__________________________________________________________________________________________________
conv4_block6_0_relu (Activation (None, 32, 32, 416)  0           conv4_block6_0_bn[0][0]          
__________________________________________________________________________________________________
conv4_block6_1_conv (Conv2D)    (None, 32, 32, 128)  53248       conv4_block6_0_relu[0][0]        
__________________________________________________________________________________________________
conv4_block6_1_bn (BatchNormali (None, 32, 32, 128)  512         conv4_block6_1_conv[0][0]        
__________________________________________________________________________________________________
conv4_block6_1_relu (Activation (None, 32, 32, 128)  0           conv4_block6_1_bn[0][0]          
__________________________________________________________________________________________________
conv4_block6_2_conv (Conv2D)    (None, 32, 32, 32)   36864       conv4_block6_1_relu[0][0]        
__________________________________________________________________________________________________
conv4_block6_concat (Concatenat (None, 32, 32, 448)  0           conv4_block5_concat[0][0]        
                                                                 conv4_block6_2_conv[0][0]        
__________________________________________________________________________________________________
conv4_block7_0_bn (BatchNormali (None, 32, 32, 448)  1792        conv4_block6_concat[0][0]        
__________________________________________________________________________________________________
conv4_block7_0_relu (Activation (None, 32, 32, 448)  0           conv4_block7_0_bn[0][0]          
__________________________________________________________________________________________________
conv4_block7_1_conv (Conv2D)    (None, 32, 32, 128)  57344       conv4_block7_0_relu[0][0]        
__________________________________________________________________________________________________
conv4_block7_1_bn (BatchNormali (None, 32, 32, 128)  512         conv4_block7_1_conv[0][0]        
__________________________________________________________________________________________________
conv4_block7_1_relu (Activation (None, 32, 32, 128)  0           conv4_block7_1_bn[0][0]          
__________________________________________________________________________________________________
conv4_block7_2_conv (Conv2D)    (None, 32, 32, 32)   36864       conv4_block7_1_relu[0][0]        
__________________________________________________________________________________________________
conv4_block7_concat (Concatenat (None, 32, 32, 480)  0           conv4_block6_concat[0][0]        
                                                                 conv4_block7_2_conv[0][0]        
__________________________________________________________________________________________________
conv4_block8_0_bn (BatchNormali (None, 32, 32, 480)  1920        conv4_block7_concat[0][0]        
__________________________________________________________________________________________________
conv4_block8_0_relu (Activation (None, 32, 32, 480)  0           conv4_block8_0_bn[0][0]          
__________________________________________________________________________________________________
conv4_block8_1_conv (Conv2D)    (None, 32, 32, 128)  61440       conv4_block8_0_relu[0][0]        
__________________________________________________________________________________________________
conv4_block8_1_bn (BatchNormali (None, 32, 32, 128)  512         conv4_block8_1_conv[0][0]        
__________________________________________________________________________________________________
conv4_block8_1_relu (Activation (None, 32, 32, 128)  0           conv4_block8_1_bn[0][0]          
__________________________________________________________________________________________________
conv4_block8_2_conv (Conv2D)    (None, 32, 32, 32)   36864       conv4_block8_1_relu[0][0]        
__________________________________________________________________________________________________
conv4_block8_concat (Concatenat (None, 32, 32, 512)  0           conv4_block7_concat[0][0]        
                                                                 conv4_block8_2_conv[0][0]        
__________________________________________________________________________________________________
conv4_block9_0_bn (BatchNormali (None, 32, 32, 512)  2048        conv4_block8_concat[0][0]        
__________________________________________________________________________________________________
conv4_block9_0_relu (Activation (None, 32, 32, 512)  0           conv4_block9_0_bn[0][0]          
__________________________________________________________________________________________________
conv4_block9_1_conv (Conv2D)    (None, 32, 32, 128)  65536       conv4_block9_0_relu[0][0]        
__________________________________________________________________________________________________
conv4_block9_1_bn (BatchNormali (None, 32, 32, 128)  512         conv4_block9_1_conv[0][0]        
__________________________________________________________________________________________________
conv4_block9_1_relu (Activation (None, 32, 32, 128)  0           conv4_block9_1_bn[0][0]          
__________________________________________________________________________________________________
conv4_block9_2_conv (Conv2D)    (None, 32, 32, 32)   36864       conv4_block9_1_relu[0][0]        
__________________________________________________________________________________________________
conv4_block9_concat (Concatenat (None, 32, 32, 544)  0           conv4_block8_concat[0][0]        
                                                                 conv4_block9_2_conv[0][0]        
__________________________________________________________________________________________________
conv4_block10_0_bn (BatchNormal (None, 32, 32, 544)  2176        conv4_block9_concat[0][0]        
__________________________________________________________________________________________________
conv4_block10_0_relu (Activatio (None, 32, 32, 544)  0           conv4_block10_0_bn[0][0]         
__________________________________________________________________________________________________
conv4_block10_1_conv (Conv2D)   (None, 32, 32, 128)  69632       conv4_block10_0_relu[0][0]       
__________________________________________________________________________________________________
conv4_block10_1_bn (BatchNormal (None, 32, 32, 128)  512         conv4_block10_1_conv[0][0]       
__________________________________________________________________________________________________
conv4_block10_1_relu (Activatio (None, 32, 32, 128)  0           conv4_block10_1_bn[0][0]         
__________________________________________________________________________________________________
conv4_block10_2_conv (Conv2D)   (None, 32, 32, 32)   36864       conv4_block10_1_relu[0][0]       
__________________________________________________________________________________________________
conv4_block10_concat (Concatena (None, 32, 32, 576)  0           conv4_block9_concat[0][0]        
                                                                 conv4_block10_2_conv[0][0]       
__________________________________________________________________________________________________
conv4_block11_0_bn (BatchNormal (None, 32, 32, 576)  2304        conv4_block10_concat[0][0]       
__________________________________________________________________________________________________
conv4_block11_0_relu (Activatio (None, 32, 32, 576)  0           conv4_block11_0_bn[0][0]         
__________________________________________________________________________________________________
conv4_block11_1_conv (Conv2D)   (None, 32, 32, 128)  73728       conv4_block11_0_relu[0][0]       
__________________________________________________________________________________________________
conv4_block11_1_bn (BatchNormal (None, 32, 32, 128)  512         conv4_block11_1_conv[0][0]       
__________________________________________________________________________________________________
conv4_block11_1_relu (Activatio (None, 32, 32, 128)  0           conv4_block11_1_bn[0][0]         
__________________________________________________________________________________________________
conv4_block11_2_conv (Conv2D)   (None, 32, 32, 32)   36864       conv4_block11_1_relu[0][0]       
__________________________________________________________________________________________________
conv4_block11_concat (Concatena (None, 32, 32, 608)  0           conv4_block10_concat[0][0]       
                                                                 conv4_block11_2_conv[0][0]       
__________________________________________________________________________________________________
conv4_block12_0_bn (BatchNormal (None, 32, 32, 608)  2432        conv4_block11_concat[0][0]       
__________________________________________________________________________________________________
conv4_block12_0_relu (Activatio (None, 32, 32, 608)  0           conv4_block12_0_bn[0][0]         
__________________________________________________________________________________________________
conv4_block12_1_conv (Conv2D)   (None, 32, 32, 128)  77824       conv4_block12_0_relu[0][0]       
__________________________________________________________________________________________________
conv4_block12_1_bn (BatchNormal (None, 32, 32, 128)  512         conv4_block12_1_conv[0][0]       
__________________________________________________________________________________________________
conv4_block12_1_relu (Activatio (None, 32, 32, 128)  0           conv4_block12_1_bn[0][0]         
__________________________________________________________________________________________________
conv4_block12_2_conv (Conv2D)   (None, 32, 32, 32)   36864       conv4_block12_1_relu[0][0]       
__________________________________________________________________________________________________
conv4_block12_concat (Concatena (None, 32, 32, 640)  0           conv4_block11_concat[0][0]       
                                                                 conv4_block12_2_conv[0][0]       
__________________________________________________________________________________________________
conv4_block13_0_bn (BatchNormal (None, 32, 32, 640)  2560        conv4_block12_concat[0][0]       
__________________________________________________________________________________________________
conv4_block13_0_relu (Activatio (None, 32, 32, 640)  0           conv4_block13_0_bn[0][0]         
__________________________________________________________________________________________________
conv4_block13_1_conv (Conv2D)   (None, 32, 32, 128)  81920       conv4_block13_0_relu[0][0]       
__________________________________________________________________________________________________
conv4_block13_1_bn (BatchNormal (None, 32, 32, 128)  512         conv4_block13_1_conv[0][0]       
__________________________________________________________________________________________________
conv4_block13_1_relu (Activatio (None, 32, 32, 128)  0           conv4_block13_1_bn[0][0]         
__________________________________________________________________________________________________
conv4_block13_2_conv (Conv2D)   (None, 32, 32, 32)   36864       conv4_block13_1_relu[0][0]       
__________________________________________________________________________________________________
conv4_block13_concat (Concatena (None, 32, 32, 672)  0           conv4_block12_concat[0][0]       
                                                                 conv4_block13_2_conv[0][0]       
__________________________________________________________________________________________________
conv4_block14_0_bn (BatchNormal (None, 32, 32, 672)  2688        conv4_block13_concat[0][0]       
__________________________________________________________________________________________________
conv4_block14_0_relu (Activatio (None, 32, 32, 672)  0           conv4_block14_0_bn[0][0]         
__________________________________________________________________________________________________
conv4_block14_1_conv (Conv2D)   (None, 32, 32, 128)  86016       conv4_block14_0_relu[0][0]       
__________________________________________________________________________________________________
conv4_block14_1_bn (BatchNormal (None, 32, 32, 128)  512         conv4_block14_1_conv[0][0]       
__________________________________________________________________________________________________
conv4_block14_1_relu (Activatio (None, 32, 32, 128)  0           conv4_block14_1_bn[0][0]         
__________________________________________________________________________________________________
conv4_block14_2_conv (Conv2D)   (None, 32, 32, 32)   36864       conv4_block14_1_relu[0][0]       
__________________________________________________________________________________________________
conv4_block14_concat (Concatena (None, 32, 32, 704)  0           conv4_block13_concat[0][0]       
                                                                 conv4_block14_2_conv[0][0]       
__________________________________________________________________________________________________
conv4_block15_0_bn (BatchNormal (None, 32, 32, 704)  2816        conv4_block14_concat[0][0]       
__________________________________________________________________________________________________
conv4_block15_0_relu (Activatio (None, 32, 32, 704)  0           conv4_block15_0_bn[0][0]         
__________________________________________________________________________________________________
conv4_block15_1_conv (Conv2D)   (None, 32, 32, 128)  90112       conv4_block15_0_relu[0][0]       
__________________________________________________________________________________________________
conv4_block15_1_bn (BatchNormal (None, 32, 32, 128)  512         conv4_block15_1_conv[0][0]       
__________________________________________________________________________________________________
conv4_block15_1_relu (Activatio (None, 32, 32, 128)  0           conv4_block15_1_bn[0][0]         
__________________________________________________________________________________________________
conv4_block15_2_conv (Conv2D)   (None, 32, 32, 32)   36864       conv4_block15_1_relu[0][0]       
__________________________________________________________________________________________________
conv4_block15_concat (Concatena (None, 32, 32, 736)  0           conv4_block14_concat[0][0]       
                                                                 conv4_block15_2_conv[0][0]       
__________________________________________________________________________________________________
conv4_block16_0_bn (BatchNormal (None, 32, 32, 736)  2944        conv4_block15_concat[0][0]       
__________________________________________________________________________________________________
conv4_block16_0_relu (Activatio (None, 32, 32, 736)  0           conv4_block16_0_bn[0][0]         
__________________________________________________________________________________________________
conv4_block16_1_conv (Conv2D)   (None, 32, 32, 128)  94208       conv4_block16_0_relu[0][0]       
__________________________________________________________________________________________________
conv4_block16_1_bn (BatchNormal (None, 32, 32, 128)  512         conv4_block16_1_conv[0][0]       
__________________________________________________________________________________________________
conv4_block16_1_relu (Activatio (None, 32, 32, 128)  0           conv4_block16_1_bn[0][0]         
__________________________________________________________________________________________________
conv4_block16_2_conv (Conv2D)   (None, 32, 32, 32)   36864       conv4_block16_1_relu[0][0]       
__________________________________________________________________________________________________
conv4_block16_concat (Concatena (None, 32, 32, 768)  0           conv4_block15_concat[0][0]       
                                                                 conv4_block16_2_conv[0][0]       
__________________________________________________________________________________________________
conv4_block17_0_bn (BatchNormal (None, 32, 32, 768)  3072        conv4_block16_concat[0][0]       
__________________________________________________________________________________________________
conv4_block17_0_relu (Activatio (None, 32, 32, 768)  0           conv4_block17_0_bn[0][0]         
__________________________________________________________________________________________________
conv4_block17_1_conv (Conv2D)   (None, 32, 32, 128)  98304       conv4_block17_0_relu[0][0]       
__________________________________________________________________________________________________
conv4_block17_1_bn (BatchNormal (None, 32, 32, 128)  512         conv4_block17_1_conv[0][0]       
__________________________________________________________________________________________________
conv4_block17_1_relu (Activatio (None, 32, 32, 128)  0           conv4_block17_1_bn[0][0]         
__________________________________________________________________________________________________
conv4_block17_2_conv (Conv2D)   (None, 32, 32, 32)   36864       conv4_block17_1_relu[0][0]       
__________________________________________________________________________________________________
conv4_block17_concat (Concatena (None, 32, 32, 800)  0           conv4_block16_concat[0][0]       
                                                                 conv4_block17_2_conv[0][0]       
__________________________________________________________________________________________________
conv4_block18_0_bn (BatchNormal (None, 32, 32, 800)  3200        conv4_block17_concat[0][0]       
__________________________________________________________________________________________________
conv4_block18_0_relu (Activatio (None, 32, 32, 800)  0           conv4_block18_0_bn[0][0]         
__________________________________________________________________________________________________
conv4_block18_1_conv (Conv2D)   (None, 32, 32, 128)  102400      conv4_block18_0_relu[0][0]       
__________________________________________________________________________________________________
conv4_block18_1_bn (BatchNormal (None, 32, 32, 128)  512         conv4_block18_1_conv[0][0]       
__________________________________________________________________________________________________
conv4_block18_1_relu (Activatio (None, 32, 32, 128)  0           conv4_block18_1_bn[0][0]         
__________________________________________________________________________________________________
conv4_block18_2_conv (Conv2D)   (None, 32, 32, 32)   36864       conv4_block18_1_relu[0][0]       
__________________________________________________________________________________________________
conv4_block18_concat (Concatena (None, 32, 32, 832)  0           conv4_block17_concat[0][0]       
                                                                 conv4_block18_2_conv[0][0]       
__________________________________________________________________________________________________
conv4_block19_0_bn (BatchNormal (None, 32, 32, 832)  3328        conv4_block18_concat[0][0]       
__________________________________________________________________________________________________
conv4_block19_0_relu (Activatio (None, 32, 32, 832)  0           conv4_block19_0_bn[0][0]         
__________________________________________________________________________________________________
conv4_block19_1_conv (Conv2D)   (None, 32, 32, 128)  106496      conv4_block19_0_relu[0][0]       
__________________________________________________________________________________________________
conv4_block19_1_bn (BatchNormal (None, 32, 32, 128)  512         conv4_block19_1_conv[0][0]       
__________________________________________________________________________________________________
conv4_block19_1_relu (Activatio (None, 32, 32, 128)  0           conv4_block19_1_bn[0][0]         
__________________________________________________________________________________________________
conv4_block19_2_conv (Conv2D)   (None, 32, 32, 32)   36864       conv4_block19_1_relu[0][0]       
__________________________________________________________________________________________________
conv4_block19_concat (Concatena (None, 32, 32, 864)  0           conv4_block18_concat[0][0]       
                                                                 conv4_block19_2_conv[0][0]       
__________________________________________________________________________________________________
conv4_block20_0_bn (BatchNormal (None, 32, 32, 864)  3456        conv4_block19_concat[0][0]       
__________________________________________________________________________________________________
conv4_block20_0_relu (Activatio (None, 32, 32, 864)  0           conv4_block20_0_bn[0][0]         
__________________________________________________________________________________________________
conv4_block20_1_conv (Conv2D)   (None, 32, 32, 128)  110592      conv4_block20_0_relu[0][0]       
__________________________________________________________________________________________________
conv4_block20_1_bn (BatchNormal (None, 32, 32, 128)  512         conv4_block20_1_conv[0][0]       
__________________________________________________________________________________________________
conv4_block20_1_relu (Activatio (None, 32, 32, 128)  0           conv4_block20_1_bn[0][0]         
__________________________________________________________________________________________________
conv4_block20_2_conv (Conv2D)   (None, 32, 32, 32)   36864       conv4_block20_1_relu[0][0]       
__________________________________________________________________________________________________
conv4_block20_concat (Concatena (None, 32, 32, 896)  0           conv4_block19_concat[0][0]       
                                                                 conv4_block20_2_conv[0][0]       
__________________________________________________________________________________________________
conv4_block21_0_bn (BatchNormal (None, 32, 32, 896)  3584        conv4_block20_concat[0][0]       
__________________________________________________________________________________________________
conv4_block21_0_relu (Activatio (None, 32, 32, 896)  0           conv4_block21_0_bn[0][0]         
__________________________________________________________________________________________________
conv4_block21_1_conv (Conv2D)   (None, 32, 32, 128)  114688      conv4_block21_0_relu[0][0]       
__________________________________________________________________________________________________
conv4_block21_1_bn (BatchNormal (None, 32, 32, 128)  512         conv4_block21_1_conv[0][0]       
__________________________________________________________________________________________________
conv4_block21_1_relu (Activatio (None, 32, 32, 128)  0           conv4_block21_1_bn[0][0]         
__________________________________________________________________________________________________
conv4_block21_2_conv (Conv2D)   (None, 32, 32, 32)   36864       conv4_block21_1_relu[0][0]       
__________________________________________________________________________________________________
conv4_block21_concat (Concatena (None, 32, 32, 928)  0           conv4_block20_concat[0][0]       
                                                                 conv4_block21_2_conv[0][0]       
__________________________________________________________________________________________________
conv4_block22_0_bn (BatchNormal (None, 32, 32, 928)  3712        conv4_block21_concat[0][0]       
__________________________________________________________________________________________________
conv4_block22_0_relu (Activatio (None, 32, 32, 928)  0           conv4_block22_0_bn[0][0]         
__________________________________________________________________________________________________
conv4_block22_1_conv (Conv2D)   (None, 32, 32, 128)  118784      conv4_block22_0_relu[0][0]       
__________________________________________________________________________________________________
conv4_block22_1_bn (BatchNormal (None, 32, 32, 128)  512         conv4_block22_1_conv[0][0]       
__________________________________________________________________________________________________
conv4_block22_1_relu (Activatio (None, 32, 32, 128)  0           conv4_block22_1_bn[0][0]         
__________________________________________________________________________________________________
conv4_block22_2_conv (Conv2D)   (None, 32, 32, 32)   36864       conv4_block22_1_relu[0][0]       
__________________________________________________________________________________________________
conv4_block22_concat (Concatena (None, 32, 32, 960)  0           conv4_block21_concat[0][0]       
                                                                 conv4_block22_2_conv[0][0]       
__________________________________________________________________________________________________
conv4_block23_0_bn (BatchNormal (None, 32, 32, 960)  3840        conv4_block22_concat[0][0]       
__________________________________________________________________________________________________
conv4_block23_0_relu (Activatio (None, 32, 32, 960)  0           conv4_block23_0_bn[0][0]         
__________________________________________________________________________________________________
conv4_block23_1_conv (Conv2D)   (None, 32, 32, 128)  122880      conv4_block23_0_relu[0][0]       
__________________________________________________________________________________________________
conv4_block23_1_bn (BatchNormal (None, 32, 32, 128)  512         conv4_block23_1_conv[0][0]       
__________________________________________________________________________________________________
conv4_block23_1_relu (Activatio (None, 32, 32, 128)  0           conv4_block23_1_bn[0][0]         
__________________________________________________________________________________________________
conv4_block23_2_conv (Conv2D)   (None, 32, 32, 32)   36864       conv4_block23_1_relu[0][0]       
__________________________________________________________________________________________________
conv4_block23_concat (Concatena (None, 32, 32, 992)  0           conv4_block22_concat[0][0]       
                                                                 conv4_block23_2_conv[0][0]       
__________________________________________________________________________________________________
conv4_block24_0_bn (BatchNormal (None, 32, 32, 992)  3968        conv4_block23_concat[0][0]       
__________________________________________________________________________________________________
conv4_block24_0_relu (Activatio (None, 32, 32, 992)  0           conv4_block24_0_bn[0][0]         
__________________________________________________________________________________________________
conv4_block24_1_conv (Conv2D)   (None, 32, 32, 128)  126976      conv4_block24_0_relu[0][0]       
__________________________________________________________________________________________________
conv4_block24_1_bn (BatchNormal (None, 32, 32, 128)  512         conv4_block24_1_conv[0][0]       
__________________________________________________________________________________________________
conv4_block24_1_relu (Activatio (None, 32, 32, 128)  0           conv4_block24_1_bn[0][0]         
__________________________________________________________________________________________________
conv4_block24_2_conv (Conv2D)   (None, 32, 32, 32)   36864       conv4_block24_1_relu[0][0]       
__________________________________________________________________________________________________
conv4_block24_concat (Concatena (None, 32, 32, 1024) 0           conv4_block23_concat[0][0]       
                                                                 conv4_block24_2_conv[0][0]       
__________________________________________________________________________________________________
conv4_block25_0_bn (BatchNormal (None, 32, 32, 1024) 4096        conv4_block24_concat[0][0]       
__________________________________________________________________________________________________
conv4_block25_0_relu (Activatio (None, 32, 32, 1024) 0           conv4_block25_0_bn[0][0]         
__________________________________________________________________________________________________
conv4_block25_1_conv (Conv2D)   (None, 32, 32, 128)  131072      conv4_block25_0_relu[0][0]       
__________________________________________________________________________________________________
conv4_block25_1_bn (BatchNormal (None, 32, 32, 128)  512         conv4_block25_1_conv[0][0]       
__________________________________________________________________________________________________
conv4_block25_1_relu (Activatio (None, 32, 32, 128)  0           conv4_block25_1_bn[0][0]         
__________________________________________________________________________________________________
conv4_block25_2_conv (Conv2D)   (None, 32, 32, 32)   36864       conv4_block25_1_relu[0][0]       
__________________________________________________________________________________________________
conv4_block25_concat (Concatena (None, 32, 32, 1056) 0           conv4_block24_concat[0][0]       
                                                                 conv4_block25_2_conv[0][0]       
__________________________________________________________________________________________________
conv4_block26_0_bn (BatchNormal (None, 32, 32, 1056) 4224        conv4_block25_concat[0][0]       
__________________________________________________________________________________________________
conv4_block26_0_relu (Activatio (None, 32, 32, 1056) 0           conv4_block26_0_bn[0][0]         
__________________________________________________________________________________________________
conv4_block26_1_conv (Conv2D)   (None, 32, 32, 128)  135168      conv4_block26_0_relu[0][0]       
__________________________________________________________________________________________________
conv4_block26_1_bn (BatchNormal (None, 32, 32, 128)  512         conv4_block26_1_conv[0][0]       
__________________________________________________________________________________________________
conv4_block26_1_relu (Activatio (None, 32, 32, 128)  0           conv4_block26_1_bn[0][0]         
__________________________________________________________________________________________________
conv4_block26_2_conv (Conv2D)   (None, 32, 32, 32)   36864       conv4_block26_1_relu[0][0]       
__________________________________________________________________________________________________
conv4_block26_concat (Concatena (None, 32, 32, 1088) 0           conv4_block25_concat[0][0]       
                                                                 conv4_block26_2_conv[0][0]       
__________________________________________________________________________________________________
conv4_block27_0_bn (BatchNormal (None, 32, 32, 1088) 4352        conv4_block26_concat[0][0]       
__________________________________________________________________________________________________
conv4_block27_0_relu (Activatio (None, 32, 32, 1088) 0           conv4_block27_0_bn[0][0]         
__________________________________________________________________________________________________
conv4_block27_1_conv (Conv2D)   (None, 32, 32, 128)  139264      conv4_block27_0_relu[0][0]       
__________________________________________________________________________________________________
conv4_block27_1_bn (BatchNormal (None, 32, 32, 128)  512         conv4_block27_1_conv[0][0]       
__________________________________________________________________________________________________
conv4_block27_1_relu (Activatio (None, 32, 32, 128)  0           conv4_block27_1_bn[0][0]         
__________________________________________________________________________________________________
conv4_block27_2_conv (Conv2D)   (None, 32, 32, 32)   36864       conv4_block27_1_relu[0][0]       
__________________________________________________________________________________________________
conv4_block27_concat (Concatena (None, 32, 32, 1120) 0           conv4_block26_concat[0][0]       
                                                                 conv4_block27_2_conv[0][0]       
__________________________________________________________________________________________________
conv4_block28_0_bn (BatchNormal (None, 32, 32, 1120) 4480        conv4_block27_concat[0][0]       
__________________________________________________________________________________________________
conv4_block28_0_relu (Activatio (None, 32, 32, 1120) 0           conv4_block28_0_bn[0][0]         
__________________________________________________________________________________________________
conv4_block28_1_conv (Conv2D)   (None, 32, 32, 128)  143360      conv4_block28_0_relu[0][0]       
__________________________________________________________________________________________________
conv4_block28_1_bn (BatchNormal (None, 32, 32, 128)  512         conv4_block28_1_conv[0][0]       
__________________________________________________________________________________________________
conv4_block28_1_relu (Activatio (None, 32, 32, 128)  0           conv4_block28_1_bn[0][0]         
__________________________________________________________________________________________________
conv4_block28_2_conv (Conv2D)   (None, 32, 32, 32)   36864       conv4_block28_1_relu[0][0]       
__________________________________________________________________________________________________
conv4_block28_concat (Concatena (None, 32, 32, 1152) 0           conv4_block27_concat[0][0]       
                                                                 conv4_block28_2_conv[0][0]       
__________________________________________________________________________________________________
conv4_block29_0_bn (BatchNormal (None, 32, 32, 1152) 4608        conv4_block28_concat[0][0]       
__________________________________________________________________________________________________
conv4_block29_0_relu (Activatio (None, 32, 32, 1152) 0           conv4_block29_0_bn[0][0]         
__________________________________________________________________________________________________
conv4_block29_1_conv (Conv2D)   (None, 32, 32, 128)  147456      conv4_block29_0_relu[0][0]       
__________________________________________________________________________________________________
conv4_block29_1_bn (BatchNormal (None, 32, 32, 128)  512         conv4_block29_1_conv[0][0]       
__________________________________________________________________________________________________
conv4_block29_1_relu (Activatio (None, 32, 32, 128)  0           conv4_block29_1_bn[0][0]         
__________________________________________________________________________________________________
conv4_block29_2_conv (Conv2D)   (None, 32, 32, 32)   36864       conv4_block29_1_relu[0][0]       
__________________________________________________________________________________________________
conv4_block29_concat (Concatena (None, 32, 32, 1184) 0           conv4_block28_concat[0][0]       
                                                                 conv4_block29_2_conv[0][0]       
__________________________________________________________________________________________________
conv4_block30_0_bn (BatchNormal (None, 32, 32, 1184) 4736        conv4_block29_concat[0][0]       
__________________________________________________________________________________________________
conv4_block30_0_relu (Activatio (None, 32, 32, 1184) 0           conv4_block30_0_bn[0][0]         
__________________________________________________________________________________________________
conv4_block30_1_conv (Conv2D)   (None, 32, 32, 128)  151552      conv4_block30_0_relu[0][0]       
__________________________________________________________________________________________________
conv4_block30_1_bn (BatchNormal (None, 32, 32, 128)  512         conv4_block30_1_conv[0][0]       
__________________________________________________________________________________________________
conv4_block30_1_relu (Activatio (None, 32, 32, 128)  0           conv4_block30_1_bn[0][0]         
__________________________________________________________________________________________________
conv4_block30_2_conv (Conv2D)   (None, 32, 32, 32)   36864       conv4_block30_1_relu[0][0]       
__________________________________________________________________________________________________
conv4_block30_concat (Concatena (None, 32, 32, 1216) 0           conv4_block29_concat[0][0]       
                                                                 conv4_block30_2_conv[0][0]       
__________________________________________________________________________________________________
conv4_block31_0_bn (BatchNormal (None, 32, 32, 1216) 4864        conv4_block30_concat[0][0]       
__________________________________________________________________________________________________
conv4_block31_0_relu (Activatio (None, 32, 32, 1216) 0           conv4_block31_0_bn[0][0]         
__________________________________________________________________________________________________
conv4_block31_1_conv (Conv2D)   (None, 32, 32, 128)  155648      conv4_block31_0_relu[0][0]       
__________________________________________________________________________________________________
conv4_block31_1_bn (BatchNormal (None, 32, 32, 128)  512         conv4_block31_1_conv[0][0]       
__________________________________________________________________________________________________
conv4_block31_1_relu (Activatio (None, 32, 32, 128)  0           conv4_block31_1_bn[0][0]         
__________________________________________________________________________________________________
conv4_block31_2_conv (Conv2D)   (None, 32, 32, 32)   36864       conv4_block31_1_relu[0][0]       
__________________________________________________________________________________________________
conv4_block31_concat (Concatena (None, 32, 32, 1248) 0           conv4_block30_concat[0][0]       
                                                                 conv4_block31_2_conv[0][0]       
__________________________________________________________________________________________________
conv4_block32_0_bn (BatchNormal (None, 32, 32, 1248) 4992        conv4_block31_concat[0][0]       
__________________________________________________________________________________________________
conv4_block32_0_relu (Activatio (None, 32, 32, 1248) 0           conv4_block32_0_bn[0][0]         
__________________________________________________________________________________________________
conv4_block32_1_conv (Conv2D)   (None, 32, 32, 128)  159744      conv4_block32_0_relu[0][0]       
__________________________________________________________________________________________________
conv4_block32_1_bn (BatchNormal (None, 32, 32, 128)  512         conv4_block32_1_conv[0][0]       
__________________________________________________________________________________________________
conv4_block32_1_relu (Activatio (None, 32, 32, 128)  0           conv4_block32_1_bn[0][0]         
__________________________________________________________________________________________________
conv4_block32_2_conv (Conv2D)   (None, 32, 32, 32)   36864       conv4_block32_1_relu[0][0]       
__________________________________________________________________________________________________
conv4_block32_concat (Concatena (None, 32, 32, 1280) 0           conv4_block31_concat[0][0]       
                                                                 conv4_block32_2_conv[0][0]       
__________________________________________________________________________________________________
pool4_bn (BatchNormalization)   (None, 32, 32, 1280) 5120        conv4_block32_concat[0][0]       
__________________________________________________________________________________________________
pool4_relu (Activation)         (None, 32, 32, 1280) 0           pool4_bn[0][0]                   
__________________________________________________________________________________________________
pool4_conv (Conv2D)             (None, 32, 32, 640)  819200      pool4_relu[0][0]                 
__________________________________________________________________________________________________
pool4_pool (AveragePooling2D)   (None, 16, 16, 640)  0           pool4_conv[0][0]                 
__________________________________________________________________________________________________
conv5_block1_0_bn (BatchNormali (None, 16, 16, 640)  2560        pool4_pool[0][0]                 
__________________________________________________________________________________________________
conv5_block1_0_relu (Activation (None, 16, 16, 640)  0           conv5_block1_0_bn[0][0]          
__________________________________________________________________________________________________
conv5_block1_1_conv (Conv2D)    (None, 16, 16, 128)  81920       conv5_block1_0_relu[0][0]        
__________________________________________________________________________________________________
conv5_block1_1_bn (BatchNormali (None, 16, 16, 128)  512         conv5_block1_1_conv[0][0]        
__________________________________________________________________________________________________
conv5_block1_1_relu (Activation (None, 16, 16, 128)  0           conv5_block1_1_bn[0][0]          
__________________________________________________________________________________________________
conv5_block1_2_conv (Conv2D)    (None, 16, 16, 32)   36864       conv5_block1_1_relu[0][0]        
__________________________________________________________________________________________________
conv5_block1_concat (Concatenat (None, 16, 16, 672)  0           pool4_pool[0][0]                 
                                                                 conv5_block1_2_conv[0][0]        
__________________________________________________________________________________________________
conv5_block2_0_bn (BatchNormali (None, 16, 16, 672)  2688        conv5_block1_concat[0][0]        
__________________________________________________________________________________________________
conv5_block2_0_relu (Activation (None, 16, 16, 672)  0           conv5_block2_0_bn[0][0]          
__________________________________________________________________________________________________
conv5_block2_1_conv (Conv2D)    (None, 16, 16, 128)  86016       conv5_block2_0_relu[0][0]        
__________________________________________________________________________________________________
conv5_block2_1_bn (BatchNormali (None, 16, 16, 128)  512         conv5_block2_1_conv[0][0]        
__________________________________________________________________________________________________
conv5_block2_1_relu (Activation (None, 16, 16, 128)  0           conv5_block2_1_bn[0][0]          
__________________________________________________________________________________________________
conv5_block2_2_conv (Conv2D)    (None, 16, 16, 32)   36864       conv5_block2_1_relu[0][0]        
__________________________________________________________________________________________________
conv5_block2_concat (Concatenat (None, 16, 16, 704)  0           conv5_block1_concat[0][0]        
                                                                 conv5_block2_2_conv[0][0]        
__________________________________________________________________________________________________
conv5_block3_0_bn (BatchNormali (None, 16, 16, 704)  2816        conv5_block2_concat[0][0]        
__________________________________________________________________________________________________
conv5_block3_0_relu (Activation (None, 16, 16, 704)  0           conv5_block3_0_bn[0][0]          
__________________________________________________________________________________________________
conv5_block3_1_conv (Conv2D)    (None, 16, 16, 128)  90112       conv5_block3_0_relu[0][0]        
__________________________________________________________________________________________________
conv5_block3_1_bn (BatchNormali (None, 16, 16, 128)  512         conv5_block3_1_conv[0][0]        
__________________________________________________________________________________________________
conv5_block3_1_relu (Activation (None, 16, 16, 128)  0           conv5_block3_1_bn[0][0]          
__________________________________________________________________________________________________
conv5_block3_2_conv (Conv2D)    (None, 16, 16, 32)   36864       conv5_block3_1_relu[0][0]        
__________________________________________________________________________________________________
conv5_block3_concat (Concatenat (None, 16, 16, 736)  0           conv5_block2_concat[0][0]        
                                                                 conv5_block3_2_conv[0][0]        
__________________________________________________________________________________________________
conv5_block4_0_bn (BatchNormali (None, 16, 16, 736)  2944        conv5_block3_concat[0][0]        
__________________________________________________________________________________________________
conv5_block4_0_relu (Activation (None, 16, 16, 736)  0           conv5_block4_0_bn[0][0]          
__________________________________________________________________________________________________
conv5_block4_1_conv (Conv2D)    (None, 16, 16, 128)  94208       conv5_block4_0_relu[0][0]        
__________________________________________________________________________________________________
conv5_block4_1_bn (BatchNormali (None, 16, 16, 128)  512         conv5_block4_1_conv[0][0]        
__________________________________________________________________________________________________
conv5_block4_1_relu (Activation (None, 16, 16, 128)  0           conv5_block4_1_bn[0][0]          
__________________________________________________________________________________________________
conv5_block4_2_conv (Conv2D)    (None, 16, 16, 32)   36864       conv5_block4_1_relu[0][0]        
__________________________________________________________________________________________________
conv5_block4_concat (Concatenat (None, 16, 16, 768)  0           conv5_block3_concat[0][0]        
                                                                 conv5_block4_2_conv[0][0]        
__________________________________________________________________________________________________
conv5_block5_0_bn (BatchNormali (None, 16, 16, 768)  3072        conv5_block4_concat[0][0]        
__________________________________________________________________________________________________
conv5_block5_0_relu (Activation (None, 16, 16, 768)  0           conv5_block5_0_bn[0][0]          
__________________________________________________________________________________________________
conv5_block5_1_conv (Conv2D)    (None, 16, 16, 128)  98304       conv5_block5_0_relu[0][0]        
__________________________________________________________________________________________________
conv5_block5_1_bn (BatchNormali (None, 16, 16, 128)  512         conv5_block5_1_conv[0][0]        
__________________________________________________________________________________________________
conv5_block5_1_relu (Activation (None, 16, 16, 128)  0           conv5_block5_1_bn[0][0]          
__________________________________________________________________________________________________
conv5_block5_2_conv (Conv2D)    (None, 16, 16, 32)   36864       conv5_block5_1_relu[0][0]        
__________________________________________________________________________________________________
conv5_block5_concat (Concatenat (None, 16, 16, 800)  0           conv5_block4_concat[0][0]        
                                                                 conv5_block5_2_conv[0][0]        
__________________________________________________________________________________________________
conv5_block6_0_bn (BatchNormali (None, 16, 16, 800)  3200        conv5_block5_concat[0][0]        
__________________________________________________________________________________________________
conv5_block6_0_relu (Activation (None, 16, 16, 800)  0           conv5_block6_0_bn[0][0]          
__________________________________________________________________________________________________
conv5_block6_1_conv (Conv2D)    (None, 16, 16, 128)  102400      conv5_block6_0_relu[0][0]        
__________________________________________________________________________________________________
conv5_block6_1_bn (BatchNormali (None, 16, 16, 128)  512         conv5_block6_1_conv[0][0]        
__________________________________________________________________________________________________
conv5_block6_1_relu (Activation (None, 16, 16, 128)  0           conv5_block6_1_bn[0][0]          
__________________________________________________________________________________________________
conv5_block6_2_conv (Conv2D)    (None, 16, 16, 32)   36864       conv5_block6_1_relu[0][0]        
__________________________________________________________________________________________________
conv5_block6_concat (Concatenat (None, 16, 16, 832)  0           conv5_block5_concat[0][0]        
                                                                 conv5_block6_2_conv[0][0]        
__________________________________________________________________________________________________
conv5_block7_0_bn (BatchNormali (None, 16, 16, 832)  3328        conv5_block6_concat[0][0]        
__________________________________________________________________________________________________
conv5_block7_0_relu (Activation (None, 16, 16, 832)  0           conv5_block7_0_bn[0][0]          
__________________________________________________________________________________________________
conv5_block7_1_conv (Conv2D)    (None, 16, 16, 128)  106496      conv5_block7_0_relu[0][0]        
__________________________________________________________________________________________________
conv5_block7_1_bn (BatchNormali (None, 16, 16, 128)  512         conv5_block7_1_conv[0][0]        
__________________________________________________________________________________________________
conv5_block7_1_relu (Activation (None, 16, 16, 128)  0           conv5_block7_1_bn[0][0]          
__________________________________________________________________________________________________
conv5_block7_2_conv (Conv2D)    (None, 16, 16, 32)   36864       conv5_block7_1_relu[0][0]        
__________________________________________________________________________________________________
conv5_block7_concat (Concatenat (None, 16, 16, 864)  0           conv5_block6_concat[0][0]        
                                                                 conv5_block7_2_conv[0][0]        
__________________________________________________________________________________________________
conv5_block8_0_bn (BatchNormali (None, 16, 16, 864)  3456        conv5_block7_concat[0][0]        
__________________________________________________________________________________________________
conv5_block8_0_relu (Activation (None, 16, 16, 864)  0           conv5_block8_0_bn[0][0]          
__________________________________________________________________________________________________
conv5_block8_1_conv (Conv2D)    (None, 16, 16, 128)  110592      conv5_block8_0_relu[0][0]        
__________________________________________________________________________________________________
conv5_block8_1_bn (BatchNormali (None, 16, 16, 128)  512         conv5_block8_1_conv[0][0]        
__________________________________________________________________________________________________
conv5_block8_1_relu (Activation (None, 16, 16, 128)  0           conv5_block8_1_bn[0][0]          
__________________________________________________________________________________________________
conv5_block8_2_conv (Conv2D)    (None, 16, 16, 32)   36864       conv5_block8_1_relu[0][0]        
__________________________________________________________________________________________________
conv5_block8_concat (Concatenat (None, 16, 16, 896)  0           conv5_block7_concat[0][0]        
                                                                 conv5_block8_2_conv[0][0]        
__________________________________________________________________________________________________
conv5_block9_0_bn (BatchNormali (None, 16, 16, 896)  3584        conv5_block8_concat[0][0]        
__________________________________________________________________________________________________
conv5_block9_0_relu (Activation (None, 16, 16, 896)  0           conv5_block9_0_bn[0][0]          
__________________________________________________________________________________________________
conv5_block9_1_conv (Conv2D)    (None, 16, 16, 128)  114688      conv5_block9_0_relu[0][0]        
__________________________________________________________________________________________________
conv5_block9_1_bn (BatchNormali (None, 16, 16, 128)  512         conv5_block9_1_conv[0][0]        
__________________________________________________________________________________________________
conv5_block9_1_relu (Activation (None, 16, 16, 128)  0           conv5_block9_1_bn[0][0]          
__________________________________________________________________________________________________
conv5_block9_2_conv (Conv2D)    (None, 16, 16, 32)   36864       conv5_block9_1_relu[0][0]        
__________________________________________________________________________________________________
conv5_block9_concat (Concatenat (None, 16, 16, 928)  0           conv5_block8_concat[0][0]        
                                                                 conv5_block9_2_conv[0][0]        
__________________________________________________________________________________________________
conv5_block10_0_bn (BatchNormal (None, 16, 16, 928)  3712        conv5_block9_concat[0][0]        
__________________________________________________________________________________________________
conv5_block10_0_relu (Activatio (None, 16, 16, 928)  0           conv5_block10_0_bn[0][0]         
__________________________________________________________________________________________________
conv5_block10_1_conv (Conv2D)   (None, 16, 16, 128)  118784      conv5_block10_0_relu[0][0]       
__________________________________________________________________________________________________
conv5_block10_1_bn (BatchNormal (None, 16, 16, 128)  512         conv5_block10_1_conv[0][0]       
__________________________________________________________________________________________________
conv5_block10_1_relu (Activatio (None, 16, 16, 128)  0           conv5_block10_1_bn[0][0]         
__________________________________________________________________________________________________
conv5_block10_2_conv (Conv2D)   (None, 16, 16, 32)   36864       conv5_block10_1_relu[0][0]       
__________________________________________________________________________________________________
conv5_block10_concat (Concatena (None, 16, 16, 960)  0           conv5_block9_concat[0][0]        
                                                                 conv5_block10_2_conv[0][0]       
__________________________________________________________________________________________________
conv5_block11_0_bn (BatchNormal (None, 16, 16, 960)  3840        conv5_block10_concat[0][0]       
__________________________________________________________________________________________________
conv5_block11_0_relu (Activatio (None, 16, 16, 960)  0           conv5_block11_0_bn[0][0]         
__________________________________________________________________________________________________
conv5_block11_1_conv (Conv2D)   (None, 16, 16, 128)  122880      conv5_block11_0_relu[0][0]       
__________________________________________________________________________________________________
conv5_block11_1_bn (BatchNormal (None, 16, 16, 128)  512         conv5_block11_1_conv[0][0]       
__________________________________________________________________________________________________
conv5_block11_1_relu (Activatio (None, 16, 16, 128)  0           conv5_block11_1_bn[0][0]         
__________________________________________________________________________________________________
conv5_block11_2_conv (Conv2D)   (None, 16, 16, 32)   36864       conv5_block11_1_relu[0][0]       
__________________________________________________________________________________________________
conv5_block11_concat (Concatena (None, 16, 16, 992)  0           conv5_block10_concat[0][0]       
                                                                 conv5_block11_2_conv[0][0]       
__________________________________________________________________________________________________
conv5_block12_0_bn (BatchNormal (None, 16, 16, 992)  3968        conv5_block11_concat[0][0]       
__________________________________________________________________________________________________
conv5_block12_0_relu (Activatio (None, 16, 16, 992)  0           conv5_block12_0_bn[0][0]         
__________________________________________________________________________________________________
conv5_block12_1_conv (Conv2D)   (None, 16, 16, 128)  126976      conv5_block12_0_relu[0][0]       
__________________________________________________________________________________________________
conv5_block12_1_bn (BatchNormal (None, 16, 16, 128)  512         conv5_block12_1_conv[0][0]       
__________________________________________________________________________________________________
conv5_block12_1_relu (Activatio (None, 16, 16, 128)  0           conv5_block12_1_bn[0][0]         
__________________________________________________________________________________________________
conv5_block12_2_conv (Conv2D)   (None, 16, 16, 32)   36864       conv5_block12_1_relu[0][0]       
__________________________________________________________________________________________________
conv5_block12_concat (Concatena (None, 16, 16, 1024) 0           conv5_block11_concat[0][0]       
                                                                 conv5_block12_2_conv[0][0]       
__________________________________________________________________________________________________
conv5_block13_0_bn (BatchNormal (None, 16, 16, 1024) 4096        conv5_block12_concat[0][0]       
__________________________________________________________________________________________________
conv5_block13_0_relu (Activatio (None, 16, 16, 1024) 0           conv5_block13_0_bn[0][0]         
__________________________________________________________________________________________________
conv5_block13_1_conv (Conv2D)   (None, 16, 16, 128)  131072      conv5_block13_0_relu[0][0]       
__________________________________________________________________________________________________
conv5_block13_1_bn (BatchNormal (None, 16, 16, 128)  512         conv5_block13_1_conv[0][0]       
__________________________________________________________________________________________________
conv5_block13_1_relu (Activatio (None, 16, 16, 128)  0           conv5_block13_1_bn[0][0]         
__________________________________________________________________________________________________
conv5_block13_2_conv (Conv2D)   (None, 16, 16, 32)   36864       conv5_block13_1_relu[0][0]       
__________________________________________________________________________________________________
conv5_block13_concat (Concatena (None, 16, 16, 1056) 0           conv5_block12_concat[0][0]       
                                                                 conv5_block13_2_conv[0][0]       
__________________________________________________________________________________________________
conv5_block14_0_bn (BatchNormal (None, 16, 16, 1056) 4224        conv5_block13_concat[0][0]       
__________________________________________________________________________________________________
conv5_block14_0_relu (Activatio (None, 16, 16, 1056) 0           conv5_block14_0_bn[0][0]         
__________________________________________________________________________________________________
conv5_block14_1_conv (Conv2D)   (None, 16, 16, 128)  135168      conv5_block14_0_relu[0][0]       
__________________________________________________________________________________________________
conv5_block14_1_bn (BatchNormal (None, 16, 16, 128)  512         conv5_block14_1_conv[0][0]       
__________________________________________________________________________________________________
conv5_block14_1_relu (Activatio (None, 16, 16, 128)  0           conv5_block14_1_bn[0][0]         
__________________________________________________________________________________________________
conv5_block14_2_conv (Conv2D)   (None, 16, 16, 32)   36864       conv5_block14_1_relu[0][0]       
__________________________________________________________________________________________________
conv5_block14_concat (Concatena (None, 16, 16, 1088) 0           conv5_block13_concat[0][0]       
                                                                 conv5_block14_2_conv[0][0]       
__________________________________________________________________________________________________
conv5_block15_0_bn (BatchNormal (None, 16, 16, 1088) 4352        conv5_block14_concat[0][0]       
__________________________________________________________________________________________________
conv5_block15_0_relu (Activatio (None, 16, 16, 1088) 0           conv5_block15_0_bn[0][0]         
__________________________________________________________________________________________________
conv5_block15_1_conv (Conv2D)   (None, 16, 16, 128)  139264      conv5_block15_0_relu[0][0]       
__________________________________________________________________________________________________
conv5_block15_1_bn (BatchNormal (None, 16, 16, 128)  512         conv5_block15_1_conv[0][0]       
__________________________________________________________________________________________________
conv5_block15_1_relu (Activatio (None, 16, 16, 128)  0           conv5_block15_1_bn[0][0]         
__________________________________________________________________________________________________
conv5_block15_2_conv (Conv2D)   (None, 16, 16, 32)   36864       conv5_block15_1_relu[0][0]       
__________________________________________________________________________________________________
conv5_block15_concat (Concatena (None, 16, 16, 1120) 0           conv5_block14_concat[0][0]       
                                                                 conv5_block15_2_conv[0][0]       
__________________________________________________________________________________________________
conv5_block16_0_bn (BatchNormal (None, 16, 16, 1120) 4480        conv5_block15_concat[0][0]       
__________________________________________________________________________________________________
conv5_block16_0_relu (Activatio (None, 16, 16, 1120) 0           conv5_block16_0_bn[0][0]         
__________________________________________________________________________________________________
conv5_block16_1_conv (Conv2D)   (None, 16, 16, 128)  143360      conv5_block16_0_relu[0][0]       
__________________________________________________________________________________________________
conv5_block16_1_bn (BatchNormal (None, 16, 16, 128)  512         conv5_block16_1_conv[0][0]       
__________________________________________________________________________________________________
conv5_block16_1_relu (Activatio (None, 16, 16, 128)  0           conv5_block16_1_bn[0][0]         
__________________________________________________________________________________________________
conv5_block16_2_conv (Conv2D)   (None, 16, 16, 32)   36864       conv5_block16_1_relu[0][0]       
__________________________________________________________________________________________________
conv5_block16_concat (Concatena (None, 16, 16, 1152) 0           conv5_block15_concat[0][0]       
                                                                 conv5_block16_2_conv[0][0]       
__________________________________________________________________________________________________
conv5_block17_0_bn (BatchNormal (None, 16, 16, 1152) 4608        conv5_block16_concat[0][0]       
__________________________________________________________________________________________________
conv5_block17_0_relu (Activatio (None, 16, 16, 1152) 0           conv5_block17_0_bn[0][0]         
__________________________________________________________________________________________________
conv5_block17_1_conv (Conv2D)   (None, 16, 16, 128)  147456      conv5_block17_0_relu[0][0]       
__________________________________________________________________________________________________
conv5_block17_1_bn (BatchNormal (None, 16, 16, 128)  512         conv5_block17_1_conv[0][0]       
__________________________________________________________________________________________________
conv5_block17_1_relu (Activatio (None, 16, 16, 128)  0           conv5_block17_1_bn[0][0]         
__________________________________________________________________________________________________
conv5_block17_2_conv (Conv2D)   (None, 16, 16, 32)   36864       conv5_block17_1_relu[0][0]       
__________________________________________________________________________________________________
conv5_block17_concat (Concatena (None, 16, 16, 1184) 0           conv5_block16_concat[0][0]       
                                                                 conv5_block17_2_conv[0][0]       
__________________________________________________________________________________________________
conv5_block18_0_bn (BatchNormal (None, 16, 16, 1184) 4736        conv5_block17_concat[0][0]       
__________________________________________________________________________________________________
conv5_block18_0_relu (Activatio (None, 16, 16, 1184) 0           conv5_block18_0_bn[0][0]         
__________________________________________________________________________________________________
conv5_block18_1_conv (Conv2D)   (None, 16, 16, 128)  151552      conv5_block18_0_relu[0][0]       
__________________________________________________________________________________________________
conv5_block18_1_bn (BatchNormal (None, 16, 16, 128)  512         conv5_block18_1_conv[0][0]       
__________________________________________________________________________________________________
conv5_block18_1_relu (Activatio (None, 16, 16, 128)  0           conv5_block18_1_bn[0][0]         
__________________________________________________________________________________________________
conv5_block18_2_conv (Conv2D)   (None, 16, 16, 32)   36864       conv5_block18_1_relu[0][0]       
__________________________________________________________________________________________________
conv5_block18_concat (Concatena (None, 16, 16, 1216) 0           conv5_block17_concat[0][0]       
                                                                 conv5_block18_2_conv[0][0]       
__________________________________________________________________________________________________
conv5_block19_0_bn (BatchNormal (None, 16, 16, 1216) 4864        conv5_block18_concat[0][0]       
__________________________________________________________________________________________________
conv5_block19_0_relu (Activatio (None, 16, 16, 1216) 0           conv5_block19_0_bn[0][0]         
__________________________________________________________________________________________________
conv5_block19_1_conv (Conv2D)   (None, 16, 16, 128)  155648      conv5_block19_0_relu[0][0]       
__________________________________________________________________________________________________
conv5_block19_1_bn (BatchNormal (None, 16, 16, 128)  512         conv5_block19_1_conv[0][0]       
__________________________________________________________________________________________________
conv5_block19_1_relu (Activatio (None, 16, 16, 128)  0           conv5_block19_1_bn[0][0]         
__________________________________________________________________________________________________
conv5_block19_2_conv (Conv2D)   (None, 16, 16, 32)   36864       conv5_block19_1_relu[0][0]       
__________________________________________________________________________________________________
conv5_block19_concat (Concatena (None, 16, 16, 1248) 0           conv5_block18_concat[0][0]       
                                                                 conv5_block19_2_conv[0][0]       
__________________________________________________________________________________________________
conv5_block20_0_bn (BatchNormal (None, 16, 16, 1248) 4992        conv5_block19_concat[0][0]       
__________________________________________________________________________________________________
conv5_block20_0_relu (Activatio (None, 16, 16, 1248) 0           conv5_block20_0_bn[0][0]         
__________________________________________________________________________________________________
conv5_block20_1_conv (Conv2D)   (None, 16, 16, 128)  159744      conv5_block20_0_relu[0][0]       
__________________________________________________________________________________________________
conv5_block20_1_bn (BatchNormal (None, 16, 16, 128)  512         conv5_block20_1_conv[0][0]       
__________________________________________________________________________________________________
conv5_block20_1_relu (Activatio (None, 16, 16, 128)  0           conv5_block20_1_bn[0][0]         
__________________________________________________________________________________________________
conv5_block20_2_conv (Conv2D)   (None, 16, 16, 32)   36864       conv5_block20_1_relu[0][0]       
__________________________________________________________________________________________________
conv5_block20_concat (Concatena (None, 16, 16, 1280) 0           conv5_block19_concat[0][0]       
                                                                 conv5_block20_2_conv[0][0]       
__________________________________________________________________________________________________
conv5_block21_0_bn (BatchNormal (None, 16, 16, 1280) 5120        conv5_block20_concat[0][0]       
__________________________________________________________________________________________________
conv5_block21_0_relu (Activatio (None, 16, 16, 1280) 0           conv5_block21_0_bn[0][0]         
__________________________________________________________________________________________________
conv5_block21_1_conv (Conv2D)   (None, 16, 16, 128)  163840      conv5_block21_0_relu[0][0]       
__________________________________________________________________________________________________
conv5_block21_1_bn (BatchNormal (None, 16, 16, 128)  512         conv5_block21_1_conv[0][0]       
__________________________________________________________________________________________________
conv5_block21_1_relu (Activatio (None, 16, 16, 128)  0           conv5_block21_1_bn[0][0]         
__________________________________________________________________________________________________
conv5_block21_2_conv (Conv2D)   (None, 16, 16, 32)   36864       conv5_block21_1_relu[0][0]       
__________________________________________________________________________________________________
conv5_block21_concat (Concatena (None, 16, 16, 1312) 0           conv5_block20_concat[0][0]       
                                                                 conv5_block21_2_conv[0][0]       
__________________________________________________________________________________________________
conv5_block22_0_bn (BatchNormal (None, 16, 16, 1312) 5248        conv5_block21_concat[0][0]       
__________________________________________________________________________________________________
conv5_block22_0_relu (Activatio (None, 16, 16, 1312) 0           conv5_block22_0_bn[0][0]         
__________________________________________________________________________________________________
conv5_block22_1_conv (Conv2D)   (None, 16, 16, 128)  167936      conv5_block22_0_relu[0][0]       
__________________________________________________________________________________________________
conv5_block22_1_bn (BatchNormal (None, 16, 16, 128)  512         conv5_block22_1_conv[0][0]       
__________________________________________________________________________________________________
conv5_block22_1_relu (Activatio (None, 16, 16, 128)  0           conv5_block22_1_bn[0][0]         
__________________________________________________________________________________________________
conv5_block22_2_conv (Conv2D)   (None, 16, 16, 32)   36864       conv5_block22_1_relu[0][0]       
__________________________________________________________________________________________________
conv5_block22_concat (Concatena (None, 16, 16, 1344) 0           conv5_block21_concat[0][0]       
                                                                 conv5_block22_2_conv[0][0]       
__________________________________________________________________________________________________
conv5_block23_0_bn (BatchNormal (None, 16, 16, 1344) 5376        conv5_block22_concat[0][0]       
__________________________________________________________________________________________________
conv5_block23_0_relu (Activatio (None, 16, 16, 1344) 0           conv5_block23_0_bn[0][0]         
__________________________________________________________________________________________________
conv5_block23_1_conv (Conv2D)   (None, 16, 16, 128)  172032      conv5_block23_0_relu[0][0]       
__________________________________________________________________________________________________
conv5_block23_1_bn (BatchNormal (None, 16, 16, 128)  512         conv5_block23_1_conv[0][0]       
__________________________________________________________________________________________________
conv5_block23_1_relu (Activatio (None, 16, 16, 128)  0           conv5_block23_1_bn[0][0]         
__________________________________________________________________________________________________
conv5_block23_2_conv (Conv2D)   (None, 16, 16, 32)   36864       conv5_block23_1_relu[0][0]       
__________________________________________________________________________________________________
conv5_block23_concat (Concatena (None, 16, 16, 1376) 0           conv5_block22_concat[0][0]       
                                                                 conv5_block23_2_conv[0][0]       
__________________________________________________________________________________________________
conv5_block24_0_bn (BatchNormal (None, 16, 16, 1376) 5504        conv5_block23_concat[0][0]       
__________________________________________________________________________________________________
conv5_block24_0_relu (Activatio (None, 16, 16, 1376) 0           conv5_block24_0_bn[0][0]         
__________________________________________________________________________________________________
conv5_block24_1_conv (Conv2D)   (None, 16, 16, 128)  176128      conv5_block24_0_relu[0][0]       
__________________________________________________________________________________________________
conv5_block24_1_bn (BatchNormal (None, 16, 16, 128)  512         conv5_block24_1_conv[0][0]       
__________________________________________________________________________________________________
conv5_block24_1_relu (Activatio (None, 16, 16, 128)  0           conv5_block24_1_bn[0][0]         
__________________________________________________________________________________________________
conv5_block24_2_conv (Conv2D)   (None, 16, 16, 32)   36864       conv5_block24_1_relu[0][0]       
__________________________________________________________________________________________________
conv5_block24_concat (Concatena (None, 16, 16, 1408) 0           conv5_block23_concat[0][0]       
                                                                 conv5_block24_2_conv[0][0]       
__________________________________________________________________________________________________
conv5_block25_0_bn (BatchNormal (None, 16, 16, 1408) 5632        conv5_block24_concat[0][0]       
__________________________________________________________________________________________________
conv5_block25_0_relu (Activatio (None, 16, 16, 1408) 0           conv5_block25_0_bn[0][0]         
__________________________________________________________________________________________________
conv5_block25_1_conv (Conv2D)   (None, 16, 16, 128)  180224      conv5_block25_0_relu[0][0]       
__________________________________________________________________________________________________
conv5_block25_1_bn (BatchNormal (None, 16, 16, 128)  512         conv5_block25_1_conv[0][0]       
__________________________________________________________________________________________________
conv5_block25_1_relu (Activatio (None, 16, 16, 128)  0           conv5_block25_1_bn[0][0]         
__________________________________________________________________________________________________
conv5_block25_2_conv (Conv2D)   (None, 16, 16, 32)   36864       conv5_block25_1_relu[0][0]       
__________________________________________________________________________________________________
conv5_block25_concat (Concatena (None, 16, 16, 1440) 0           conv5_block24_concat[0][0]       
                                                                 conv5_block25_2_conv[0][0]       
__________________________________________________________________________________________________
conv5_block26_0_bn (BatchNormal (None, 16, 16, 1440) 5760        conv5_block25_concat[0][0]       
__________________________________________________________________________________________________
conv5_block26_0_relu (Activatio (None, 16, 16, 1440) 0           conv5_block26_0_bn[0][0]         
__________________________________________________________________________________________________
conv5_block26_1_conv (Conv2D)   (None, 16, 16, 128)  184320      conv5_block26_0_relu[0][0]       
__________________________________________________________________________________________________
conv5_block26_1_bn (BatchNormal (None, 16, 16, 128)  512         conv5_block26_1_conv[0][0]       
__________________________________________________________________________________________________
conv5_block26_1_relu (Activatio (None, 16, 16, 128)  0           conv5_block26_1_bn[0][0]         
__________________________________________________________________________________________________
conv5_block26_2_conv (Conv2D)   (None, 16, 16, 32)   36864       conv5_block26_1_relu[0][0]       
__________________________________________________________________________________________________
conv5_block26_concat (Concatena (None, 16, 16, 1472) 0           conv5_block25_concat[0][0]       
                                                                 conv5_block26_2_conv[0][0]       
__________________________________________________________________________________________________
conv5_block27_0_bn (BatchNormal (None, 16, 16, 1472) 5888        conv5_block26_concat[0][0]       
__________________________________________________________________________________________________
conv5_block27_0_relu (Activatio (None, 16, 16, 1472) 0           conv5_block27_0_bn[0][0]         
__________________________________________________________________________________________________
conv5_block27_1_conv (Conv2D)   (None, 16, 16, 128)  188416      conv5_block27_0_relu[0][0]       
__________________________________________________________________________________________________
conv5_block27_1_bn (BatchNormal (None, 16, 16, 128)  512         conv5_block27_1_conv[0][0]       
__________________________________________________________________________________________________
conv5_block27_1_relu (Activatio (None, 16, 16, 128)  0           conv5_block27_1_bn[0][0]         
__________________________________________________________________________________________________
conv5_block27_2_conv (Conv2D)   (None, 16, 16, 32)   36864       conv5_block27_1_relu[0][0]       
__________________________________________________________________________________________________
conv5_block27_concat (Concatena (None, 16, 16, 1504) 0           conv5_block26_concat[0][0]       
                                                                 conv5_block27_2_conv[0][0]       
__________________________________________________________________________________________________
conv5_block28_0_bn (BatchNormal (None, 16, 16, 1504) 6016        conv5_block27_concat[0][0]       
__________________________________________________________________________________________________
conv5_block28_0_relu (Activatio (None, 16, 16, 1504) 0           conv5_block28_0_bn[0][0]         
__________________________________________________________________________________________________
conv5_block28_1_conv (Conv2D)   (None, 16, 16, 128)  192512      conv5_block28_0_relu[0][0]       
__________________________________________________________________________________________________
conv5_block28_1_bn (BatchNormal (None, 16, 16, 128)  512         conv5_block28_1_conv[0][0]       
__________________________________________________________________________________________________
conv5_block28_1_relu (Activatio (None, 16, 16, 128)  0           conv5_block28_1_bn[0][0]         
__________________________________________________________________________________________________
conv5_block28_2_conv (Conv2D)   (None, 16, 16, 32)   36864       conv5_block28_1_relu[0][0]       
__________________________________________________________________________________________________
conv5_block28_concat (Concatena (None, 16, 16, 1536) 0           conv5_block27_concat[0][0]       
                                                                 conv5_block28_2_conv[0][0]       
__________________________________________________________________________________________________
conv5_block29_0_bn (BatchNormal (None, 16, 16, 1536) 6144        conv5_block28_concat[0][0]       
__________________________________________________________________________________________________
conv5_block29_0_relu (Activatio (None, 16, 16, 1536) 0           conv5_block29_0_bn[0][0]         
__________________________________________________________________________________________________
conv5_block29_1_conv (Conv2D)   (None, 16, 16, 128)  196608      conv5_block29_0_relu[0][0]       
__________________________________________________________________________________________________
conv5_block29_1_bn (BatchNormal (None, 16, 16, 128)  512         conv5_block29_1_conv[0][0]       
__________________________________________________________________________________________________
conv5_block29_1_relu (Activatio (None, 16, 16, 128)  0           conv5_block29_1_bn[0][0]         
__________________________________________________________________________________________________
conv5_block29_2_conv (Conv2D)   (None, 16, 16, 32)   36864       conv5_block29_1_relu[0][0]       
__________________________________________________________________________________________________
conv5_block29_concat (Concatena (None, 16, 16, 1568) 0           conv5_block28_concat[0][0]       
                                                                 conv5_block29_2_conv[0][0]       
__________________________________________________________________________________________________
conv5_block30_0_bn (BatchNormal (None, 16, 16, 1568) 6272        conv5_block29_concat[0][0]       
__________________________________________________________________________________________________
conv5_block30_0_relu (Activatio (None, 16, 16, 1568) 0           conv5_block30_0_bn[0][0]         
__________________________________________________________________________________________________
conv5_block30_1_conv (Conv2D)   (None, 16, 16, 128)  200704      conv5_block30_0_relu[0][0]       
__________________________________________________________________________________________________
conv5_block30_1_bn (BatchNormal (None, 16, 16, 128)  512         conv5_block30_1_conv[0][0]       
__________________________________________________________________________________________________
conv5_block30_1_relu (Activatio (None, 16, 16, 128)  0           conv5_block30_1_bn[0][0]         
__________________________________________________________________________________________________
conv5_block30_2_conv (Conv2D)   (None, 16, 16, 32)   36864       conv5_block30_1_relu[0][0]       
__________________________________________________________________________________________________
conv5_block30_concat (Concatena (None, 16, 16, 1600) 0           conv5_block29_concat[0][0]       
                                                                 conv5_block30_2_conv[0][0]       
__________________________________________________________________________________________________
conv5_block31_0_bn (BatchNormal (None, 16, 16, 1600) 6400        conv5_block30_concat[0][0]       
__________________________________________________________________________________________________
conv5_block31_0_relu (Activatio (None, 16, 16, 1600) 0           conv5_block31_0_bn[0][0]         
__________________________________________________________________________________________________
conv5_block31_1_conv (Conv2D)   (None, 16, 16, 128)  204800      conv5_block31_0_relu[0][0]       
__________________________________________________________________________________________________
conv5_block31_1_bn (BatchNormal (None, 16, 16, 128)  512         conv5_block31_1_conv[0][0]       
__________________________________________________________________________________________________
conv5_block31_1_relu (Activatio (None, 16, 16, 128)  0           conv5_block31_1_bn[0][0]         
__________________________________________________________________________________________________
conv5_block31_2_conv (Conv2D)   (None, 16, 16, 32)   36864       conv5_block31_1_relu[0][0]       
__________________________________________________________________________________________________
conv5_block31_concat (Concatena (None, 16, 16, 1632) 0           conv5_block30_concat[0][0]       
                                                                 conv5_block31_2_conv[0][0]       
__________________________________________________________________________________________________
conv5_block32_0_bn (BatchNormal (None, 16, 16, 1632) 6528        conv5_block31_concat[0][0]       
__________________________________________________________________________________________________
conv5_block32_0_relu (Activatio (None, 16, 16, 1632) 0           conv5_block32_0_bn[0][0]         
__________________________________________________________________________________________________
conv5_block32_1_conv (Conv2D)   (None, 16, 16, 128)  208896      conv5_block32_0_relu[0][0]       
__________________________________________________________________________________________________
conv5_block32_1_bn (BatchNormal (None, 16, 16, 128)  512         conv5_block32_1_conv[0][0]       
__________________________________________________________________________________________________
conv5_block32_1_relu (Activatio (None, 16, 16, 128)  0           conv5_block32_1_bn[0][0]         
__________________________________________________________________________________________________
conv5_block32_2_conv (Conv2D)   (None, 16, 16, 32)   36864       conv5_block32_1_relu[0][0]       
__________________________________________________________________________________________________
conv5_block32_concat (Concatena (None, 16, 16, 1664) 0           conv5_block31_concat[0][0]       
                                                                 conv5_block32_2_conv[0][0]       
__________________________________________________________________________________________________
bn (BatchNormalization)         (None, 16, 16, 1664) 6656        conv5_block32_concat[0][0]       
__________________________________________________________________________________________________
relu (Activation)               (None, 16, 16, 1664) 0           bn[0][0]                         
__________________________________________________________________________________________________
avg_pool (GlobalAveragePooling2 (None, 1664)         0           relu[0][0]                       
__________________________________________________________________________________________________
fc1 (Dense)                     (None, 512)          852480      avg_pool[0][0]                   
__________________________________________________________________________________________________
batch_1 (BatchNormalization)    (None, 512)          2048        fc1[0][0]                        
__________________________________________________________________________________________________
dropout_1 (Dropout)             (None, 512)          0           batch_1[0][0]                    
__________________________________________________________________________________________________
fc2 (Dense)                     (None, 512)          262656      dropout_1[0][0]                  
__________________________________________________________________________________________________
batch_2 (BatchNormalization)    (None, 512)          2048        fc2[0][0]                        
__________________________________________________________________________________________________
dropout_2 (Dropout)             (None, 512)          0           batch_2[0][0]                    
__________________________________________________________________________________________________
fc28 (Dense)                    (None, 28)           14364       dropout_2[0][0]                  
==================================================================================================
Total params: 13,776,476
Trainable params: 13,616,028
Non-trainable params: 160,448
__________________________________________________________________________________________________
Training model on 84569 samples, validate on 21108 samples
Epoch 1/100
 - 2982s - loss: 0.3115 - binary_accuracy: 0.8696 - val_loss: 0.1206 - val_binary_accuracy: 0.9617
…
