…
    Turnaround time :                            399266 sec.

The output (if any) follows:

__________________________________________________________________________________________________
Layer (type)                    Output Shape         Param #     Connected to                     
==================================================================================================
data (InputLayer)               (None, 1024, 1024, 4 0                                            
__________________________________________________________________________________________________
conv1 (Conv2D)                  (None, 511, 511, 32) 1184        data[0][0]                       
__________________________________________________________________________________________________
batch_normalization_1 (BatchNor (None, 511, 511, 32) 128         conv1[0][0]                      
__________________________________________________________________________________________________
activation_1 (Activation)       (None, 511, 511, 32) 0           batch_normalization_1[0][0]      
__________________________________________________________________________________________________
max_pooling2d_1 (MaxPooling2D)  (None, 255, 255, 32) 0           activation_1[0][0]               
__________________________________________________________________________________________________
conv2d_1 (Conv2D)               (None, 127, 127, 64) 18496       max_pooling2d_1[0][0]            
__________________________________________________________________________________________________
batch_normalization_2 (BatchNor (None, 127, 127, 64) 256         conv2d_1[0][0]                   
__________________________________________________________________________________________________
activation_2 (Activation)       (None, 127, 127, 64) 0           batch_normalization_2[0][0]      
__________________________________________________________________________________________________
conv2d_2 (Conv2D)               (None, 125, 125, 64) 36928       activation_2[0][0]               
__________________________________________________________________________________________________
batch_normalization_3 (BatchNor (None, 125, 125, 64) 256         conv2d_2[0][0]                   
__________________________________________________________________________________________________
activation_3 (Activation)       (None, 125, 125, 64) 0           batch_normalization_3[0][0]      
__________________________________________________________________________________________________
conv2d_3 (Conv2D)               (None, 123, 123, 64) 36928       activation_3[0][0]               
__________________________________________________________________________________________________
batch_normalization_4 (BatchNor (None, 123, 123, 64) 256         conv2d_3[0][0]                   
__________________________________________________________________________________________________
activation_4 (Activation)       (None, 123, 123, 64) 0           batch_normalization_4[0][0]      
__________________________________________________________________________________________________
max_pooling2d_2 (MaxPooling2D)  (None, 61, 61, 64)   0           activation_4[0][0]               
__________________________________________________________________________________________________
conv2d_4 (Conv2D)               (None, 59, 59, 128)  73856       max_pooling2d_2[0][0]            
__________________________________________________________________________________________________
batch_normalization_5 (BatchNor (None, 59, 59, 128)  512         conv2d_4[0][0]                   
__________________________________________________________________________________________________
activation_5 (Activation)       (None, 59, 59, 128)  0           batch_normalization_5[0][0]      
__________________________________________________________________________________________________
conv2d_5 (Conv2D)               (None, 57, 57, 128)  147584      activation_5[0][0]               
__________________________________________________________________________________________________
batch_normalization_6 (BatchNor (None, 57, 57, 128)  512         conv2d_5[0][0]                   
__________________________________________________________________________________________________
activation_6 (Activation)       (None, 57, 57, 128)  0           batch_normalization_6[0][0]      
__________________________________________________________________________________________________
conv2d_6 (Conv2D)               (None, 55, 55, 128)  147584      activation_6[0][0]               
__________________________________________________________________________________________________
batch_normalization_7 (BatchNor (None, 55, 55, 128)  512         conv2d_6[0][0]                   
__________________________________________________________________________________________________
activation_7 (Activation)       (None, 55, 55, 128)  0           batch_normalization_7[0][0]      
__________________________________________________________________________________________________
global_average_pooling2d_1 (Glo (None, 32)           0           max_pooling2d_1[0][0]            
__________________________________________________________________________________________________
global_average_pooling2d_2 (Glo (None, 64)           0           max_pooling2d_2[0][0]            
__________________________________________________________________________________________________
global_average_pooling2d_3 (Glo (None, 128)          0           activation_7[0][0]               
__________________________________________________________________________________________________
concatenate_1 (Concatenate)     (None, 224)          0           global_average_pooling2d_1[0][0] 
                                                                 global_average_pooling2d_2[0][0] 
                                                                 global_average_pooling2d_3[0][0] 
__________________________________________________________________________________________________
fc1 (Dense)                     (None, 512)          115200      concatenate_1[0][0]              
__________________________________________________________________________________________________
batch_normalization_8 (BatchNor (None, 512)          2048        fc1[0][0]                        
__________________________________________________________________________________________________
dropout_1 (Dropout)             (None, 512)          0           batch_normalization_8[0][0]      
__________________________________________________________________________________________________
fc2 (Dense)                     (None, 512)          262656      dropout_1[0][0]                  
__________________________________________________________________________________________________
batch_normalization_9 (BatchNor (None, 512)          2048        fc2[0][0]                        
__________________________________________________________________________________________________
dropout_2 (Dropout)             (None, 512)          0           batch_normalization_9[0][0]      
__________________________________________________________________________________________________
fc28 (Dense)                    (None, 28)           14364       dropout_2[0][0]                  
==================================================================================================
Total params: 861,308
Trainable params: 858,044
Non-trainable params: 3,264
__________________________________________________________________________________________________
Training model on 84569 samples, validate on 21108 samples
Epoch 1/100
Epoch 1/100
 - 9254s - loss: 0.3241 - binary_accuracy: 0.8645 - val_loss: 0.1458 - val_binary_accuracy: 0.9534
…
