…
Layer (type)                    Output Shape         Param #     Connected to                     
==================================================================================================
data (InputLayer)               (None, 1024, 1024, 3 0                                            
__________________________________________________________________________________________________
conv1_pad (ZeroPadding2D)       (None, 1030, 1030, 3 0           data[0][0]                       
__________________________________________________________________________________________________
conv1 (Conv2D)                  (None, 512, 512, 64) 9472        conv1_pad[0][0]                  
__________________________________________________________________________________________________
bn_conv1 (BatchNormalization)   (None, 512, 512, 64) 256         conv1[0][0]                      
__________________________________________________________________________________________________
activation_1 (Activation)       (None, 512, 512, 64) 0           bn_conv1[0][0]                   
__________________________________________________________________________________________________
pool1_pad (ZeroPadding2D)       (None, 514, 514, 64) 0           activation_1[0][0]               
__________________________________________________________________________________________________
max_pooling2d_1 (MaxPooling2D)  (None, 256, 256, 64) 0           pool1_pad[0][0]                  
__________________________________________________________________________________________________
res2a_branch2a (Conv2D)         (None, 256, 256, 64) 36928       max_pooling2d_1[0][0]            
__________________________________________________________________________________________________
bn2a_branch2a (BatchNormalizati (None, 256, 256, 64) 256         res2a_branch2a[0][0]             
__________________________________________________________________________________________________
activation_2 (Activation)       (None, 256, 256, 64) 0           bn2a_branch2a[0][0]              
__________________________________________________________________________________________________
res2a_branch2b (Conv2D)         (None, 256, 256, 64) 36928       activation_2[0][0]               
__________________________________________________________________________________________________
res2a_branch1 (Conv2D)          (None, 256, 256, 64) 36928       max_pooling2d_1[0][0]            
__________________________________________________________________________________________________
bn2a_branch2b (BatchNormalizati (None, 256, 256, 64) 256         res2a_branch2b[0][0]             
__________________________________________________________________________________________________
activation_3 (Activation)       (None, 256, 256, 64) 0           bn2a_branch2b[0][0]              
__________________________________________________________________________________________________
bn2a_branch1 (BatchNormalizatio (None, 256, 256, 64) 256         res2a_branch1[0][0]              
__________________________________________________________________________________________________
add_1 (Add)                     (None, 256, 256, 64) 0           activation_3[0][0]               
                                                                 bn2a_branch1[0][0]               
__________________________________________________________________________________________________
activation_4 (Activation)       (None, 256, 256, 64) 0           add_1[0][0]                      
__________________________________________________________________________________________________
res2b_branch2a (Conv2D)         (None, 256, 256, 64) 36928       activation_4[0][0]               
__________________________________________________________________________________________________
bn2b_branch2a (BatchNormalizati (None, 256, 256, 64) 256         res2b_branch2a[0][0]             
__________________________________________________________________________________________________
activation_5 (Activation)       (None, 256, 256, 64) 0           bn2b_branch2a[0][0]              
__________________________________________________________________________________________________
res2b_branch2b (Conv2D)         (None, 256, 256, 64) 36928       activation_5[0][0]               
__________________________________________________________________________________________________
bn2b_branch2b (BatchNormalizati (None, 256, 256, 64) 256         res2b_branch2b[0][0]             
__________________________________________________________________________________________________
activation_6 (Activation)       (None, 256, 256, 64) 0           bn2b_branch2b[0][0]              
__________________________________________________________________________________________________
add_2 (Add)                     (None, 256, 256, 64) 0           activation_6[0][0]               
                                                                 activation_4[0][0]               
__________________________________________________________________________________________________
activation_7 (Activation)       (None, 256, 256, 64) 0           add_2[0][0]                      
__________________________________________________________________________________________________
res2c_branch2a (Conv2D)         (None, 256, 256, 64) 36928       activation_7[0][0]               
__________________________________________________________________________________________________
bn2c_branch2a (BatchNormalizati (None, 256, 256, 64) 256         res2c_branch2a[0][0]             
__________________________________________________________________________________________________
activation_8 (Activation)       (None, 256, 256, 64) 0           bn2c_branch2a[0][0]              
__________________________________________________________________________________________________
res2c_branch2b (Conv2D)         (None, 256, 256, 64) 36928       activation_8[0][0]               
__________________________________________________________________________________________________
bn2c_branch2b (BatchNormalizati (None, 256, 256, 64) 256         res2c_branch2b[0][0]             
__________________________________________________________________________________________________
activation_9 (Activation)       (None, 256, 256, 64) 0           bn2c_branch2b[0][0]              
__________________________________________________________________________________________________
add_3 (Add)                     (None, 256, 256, 64) 0           activation_9[0][0]               
                                                                 activation_7[0][0]               
__________________________________________________________________________________________________
activation_10 (Activation)      (None, 256, 256, 64) 0           add_3[0][0]                      
__________________________________________________________________________________________________
res3a_branch2a (Conv2D)         (None, 128, 128, 128 73856       activation_10[0][0]              
__________________________________________________________________________________________________
bn3a_branch2a (BatchNormalizati (None, 128, 128, 128 512         res3a_branch2a[0][0]             
…
__________________________________________________________________________________________________
add_7 (Add)                     (None, 128, 128, 128 0           activation_21[0][0]              
                                                                 activation_19[0][0]              
__________________________________________________________________________________________________
activation_22 (Activation)      (None, 128, 128, 128 0           add_7[0][0]                      
__________________________________________________________________________________________________
res4a_branch2a (Conv2D)         (None, 64, 64, 256)  295168      activation_22[0][0]              
__________________________________________________________________________________________________
bn4a_branch2a (BatchNormalizati (None, 64, 64, 256)  1024        res4a_branch2a[0][0]             
__________________________________________________________________________________________________
activation_23 (Activation)      (None, 64, 64, 256)  0           bn4a_branch2a[0][0]              
__________________________________________________________________________________________________
res4a_branch2b (Conv2D)         (None, 64, 64, 256)  590080      activation_23[0][0]              
__________________________________________________________________________________________________
res4a_branch1 (Conv2D)          (None, 64, 64, 256)  295168      activation_22[0][0]              
__________________________________________________________________________________________________
bn4a_branch2b (BatchNormalizati (None, 64, 64, 256)  1024        res4a_branch2b[0][0]             
__________________________________________________________________________________________________
activation_24 (Activation)      (None, 64, 64, 256)  0           bn4a_branch2b[0][0]              
__________________________________________________________________________________________________
bn4a_branch1 (BatchNormalizatio (None, 64, 64, 256)  1024        res4a_branch1[0][0]              
__________________________________________________________________________________________________
add_8 (Add)                     (None, 64, 64, 256)  0           activation_24[0][0]              
                                                                 bn4a_branch1[0][0]               
__________________________________________________________________________________________________
activation_25 (Activation)      (None, 64, 64, 256)  0           add_8[0][0]                      
__________________________________________________________________________________________________
res4b_branch2a (Conv2D)         (None, 64, 64, 256)  590080      activation_25[0][0]              
__________________________________________________________________________________________________
bn4b_branch2a (BatchNormalizati (None, 64, 64, 256)  1024        res4b_branch2a[0][0]             
__________________________________________________________________________________________________
activation_26 (Activation)      (None, 64, 64, 256)  0           bn4b_branch2a[0][0]              
__________________________________________________________________________________________________
res4b_branch2b (Conv2D)         (None, 64, 64, 256)  590080      activation_26[0][0]              
__________________________________________________________________________________________________
bn4b_branch2b (BatchNormalizati (None, 64, 64, 256)  1024        res4b_branch2b[0][0]             
__________________________________________________________________________________________________
activation_27 (Activation)      (None, 64, 64, 256)  0           bn4b_branch2b[0][0]              
__________________________________________________________________________________________________
add_9 (Add)                     (None, 64, 64, 256)  0           activation_27[0][0]              
                                                                 activation_25[0][0]              
__________________________________________________________________________________________________
activation_28 (Activation)      (None, 64, 64, 256)  0           add_9[0][0]                      
__________________________________________________________________________________________________
res4c_branch2a (Conv2D)         (None, 64, 64, 256)  590080      activation_28[0][0]              
__________________________________________________________________________________________________
bn4c_branch2a (BatchNormalizati (None, 64, 64, 256)  1024        res4c_branch2a[0][0]             
__________________________________________________________________________________________________
activation_29 (Activation)      (None, 64, 64, 256)  0           bn4c_branch2a[0][0]              
__________________________________________________________________________________________________
res4c_branch2b (Conv2D)         (None, 64, 64, 256)  590080      activation_29[0][0]              
__________________________________________________________________________________________________
bn4c_branch2b (BatchNormalizati (None, 64, 64, 256)  1024        res4c_branch2b[0][0]             
__________________________________________________________________________________________________
activation_30 (Activation)      (None, 64, 64, 256)  0           bn4c_branch2b[0][0]              
__________________________________________________________________________________________________
add_10 (Add)                    (None, 64, 64, 256)  0           activation_30[0][0]              
                                                                 activation_28[0][0]              
__________________________________________________________________________________________________
activation_31 (Activation)      (None, 64, 64, 256)  0           add_10[0][0]                     
__________________________________________________________________________________________________
res4d_branch2a (Conv2D)         (None, 64, 64, 256)  590080      activation_31[0][0]              
__________________________________________________________________________________________________
bn4d_branch2a (BatchNormalizati (None, 64, 64, 256)  1024        res4d_branch2a[0][0]             
__________________________________________________________________________________________________
activation_32 (Activation)      (None, 64, 64, 256)  0           bn4d_branch2a[0][0]              
__________________________________________________________________________________________________
res4d_branch2b (Conv2D)         (None, 64, 64, 256)  590080      activation_32[0][0]              
__________________________________________________________________________________________________
bn4d_branch2b (BatchNormalizati (None, 64, 64, 256)  1024        res4d_branch2b[0][0]             
__________________________________________________________________________________________________
activation_33 (Activation)      (None, 64, 64, 256)  0           bn4d_branch2b[0][0]              
__________________________________________________________________________________________________
add_11 (Add)                    (None, 64, 64, 256)  0           activation_33[0][0]              
                                                                 activation_31[0][0]              
__________________________________________________________________________________________________
activation_34 (Activation)      (None, 64, 64, 256)  0           add_11[0][0]                     
__________________________________________________________________________________________________
res4e_branch2a (Conv2D)         (None, 64, 64, 256)  590080      activation_34[0][0]              
__________________________________________________________________________________________________
bn4e_branch2a (BatchNormalizati (None, 64, 64, 256)  1024        res4e_branch2a[0][0]             
__________________________________________________________________________________________________
activation_35 (Activation)      (None, 64, 64, 256)  0           bn4e_branch2a[0][0]              
__________________________________________________________________________________________________
res4e_branch2b (Conv2D)         (None, 64, 64, 256)  590080      activation_35[0][0]              
__________________________________________________________________________________________________
bn4e_branch2b (BatchNormalizati (None, 64, 64, 256)  1024        res4e_branch2b[0][0]             
__________________________________________________________________________________________________
activation_36 (Activation)      (None, 64, 64, 256)  0           bn4e_branch2b[0][0]              
__________________________________________________________________________________________________
add_12 (Add)                    (None, 64, 64, 256)  0           activation_36[0][0]              
                                                                 activation_34[0][0]              
__________________________________________________________________________________________________
activation_37 (Activation)      (None, 64, 64, 256)  0           add_12[0][0]                     
__________________________________________________________________________________________________
res4f_branch2a (Conv2D)         (None, 64, 64, 256)  590080      activation_37[0][0]              
__________________________________________________________________________________________________
bn4f_branch2a (BatchNormalizati (None, 64, 64, 256)  1024        res4f_branch2a[0][0]             
__________________________________________________________________________________________________
activation_38 (Activation)      (None, 64, 64, 256)  0           bn4f_branch2a[0][0]              
__________________________________________________________________________________________________
res4f_branch2b (Conv2D)         (None, 64, 64, 256)  590080      activation_38[0][0]              
__________________________________________________________________________________________________
bn4f_branch2b (BatchNormalizati (None, 64, 64, 256)  1024        res4f_branch2b[0][0]             
__________________________________________________________________________________________________
activation_39 (Activation)      (None, 64, 64, 256)  0           bn4f_branch2b[0][0]              
__________________________________________________________________________________________________
add_13 (Add)                    (None, 64, 64, 256)  0           activation_39[0][0]              
                                                                 activation_37[0][0]              
__________________________________________________________________________________________________
activation_40 (Activation)      (None, 64, 64, 256)  0           add_13[0][0]                     
__________________________________________________________________________________________________
res5a_branch2a (Conv2D)         (None, 32, 32, 512)  1180160     activation_40[0][0]              
__________________________________________________________________________________________________
bn5a_branch2a (BatchNormalizati (None, 32, 32, 512)  2048        res5a_branch2a[0][0]             
__________________________________________________________________________________________________
activation_41 (Activation)      (None, 32, 32, 512)  0           bn5a_branch2a[0][0]              
__________________________________________________________________________________________________
res5a_branch2b (Conv2D)         (None, 32, 32, 512)  2359808     activation_41[0][0]              
__________________________________________________________________________________________________
res5a_branch1 (Conv2D)          (None, 32, 32, 512)  1180160     activation_40[0][0]              
__________________________________________________________________________________________________
bn5a_branch2b (BatchNormalizati (None, 32, 32, 512)  2048        res5a_branch2b[0][0]             
__________________________________________________________________________________________________
activation_42 (Activation)      (None, 32, 32, 512)  0           bn5a_branch2b[0][0]              
__________________________________________________________________________________________________
bn5a_branch1 (BatchNormalizatio (None, 32, 32, 512)  2048        res5a_branch1[0][0]              
__________________________________________________________________________________________________
add_14 (Add)                    (None, 32, 32, 512)  0           activation_42[0][0]              
                                                                 bn5a_branch1[0][0]               
__________________________________________________________________________________________________
activation_43 (Activation)      (None, 32, 32, 512)  0           add_14[0][0]                     
__________________________________________________________________________________________________
res5b_branch2a (Conv2D)         (None, 32, 32, 512)  2359808     activation_43[0][0]              
__________________________________________________________________________________________________
bn5b_branch2a (BatchNormalizati (None, 32, 32, 512)  2048        res5b_branch2a[0][0]             
__________________________________________________________________________________________________
activation_44 (Activation)      (None, 32, 32, 512)  0           bn5b_branch2a[0][0]              
__________________________________________________________________________________________________
res5b_branch2b (Conv2D)         (None, 32, 32, 512)  2359808     activation_44[0][0]              
__________________________________________________________________________________________________
bn5b_branch2b (BatchNormalizati (None, 32, 32, 512)  2048        res5b_branch2b[0][0]             
__________________________________________________________________________________________________
activation_45 (Activation)      (None, 32, 32, 512)  0           bn5b_branch2b[0][0]              
__________________________________________________________________________________________________
add_15 (Add)                    (None, 32, 32, 512)  0           activation_45[0][0]              
                                                                 activation_43[0][0]              
__________________________________________________________________________________________________
activation_46 (Activation)      (None, 32, 32, 512)  0           add_15[0][0]                     
__________________________________________________________________________________________________
res5c_branch2a (Conv2D)         (None, 32, 32, 512)  2359808     activation_46[0][0]              
__________________________________________________________________________________________________
bn5c_branch2a (BatchNormalizati (None, 32, 32, 512)  2048        res5c_branch2a[0][0]             
__________________________________________________________________________________________________
activation_47 (Activation)      (None, 32, 32, 512)  0           bn5c_branch2a[0][0]              
__________________________________________________________________________________________________
res5c_branch2b (Conv2D)         (None, 32, 32, 512)  2359808     activation_47[0][0]              
__________________________________________________________________________________________________
bn5c_branch2b (BatchNormalizati (None, 32, 32, 512)  2048        res5c_branch2b[0][0]             
__________________________________________________________________________________________________
activation_48 (Activation)      (None, 32, 32, 512)  0           bn5c_branch2b[0][0]              
__________________________________________________________________________________________________
add_16 (Add)                    (None, 32, 32, 512)  0           activation_48[0][0]              
                                                                 activation_46[0][0]              
__________________________________________________________________________________________________
activation_49 (Activation)      (None, 32, 32, 512)  0           add_16[0][0]                     
__________________________________________________________________________________________________
global_average_pooling2d_2 (Glo (None, 64)           0           res2a_branch1[0][0]              
__________________________________________________________________________________________________
global_average_pooling2d_3 (Glo (None, 128)          0           res3a_branch1[0][0]              
__________________________________________________________________________________________________
global_average_pooling2d_4 (Glo (None, 256)          0           res4a_branch1[0][0]              
__________________________________________________________________________________________________
global_average_pooling2d_5 (Glo (None, 512)          0           res5a_branch1[0][0]              
__________________________________________________________________________________________________
global_average_pooling2d_1 (Glo (None, 512)          0           activation_49[0][0]              
__________________________________________________________________________________________________
concatenate_1 (Concatenate)     (None, 1472)         0           global_average_pooling2d_2[0][0] 
                                                                 global_average_pooling2d_3[0][0] 
                                                                 global_average_pooling2d_4[0][0] 
                                                                 global_average_pooling2d_5[0][0] 
                                                                 global_average_pooling2d_1[0][0] 
__________________________________________________________________________________________________
fc1 (Dense)                     (None, 512)          754176      concatenate_1[0][0]              
__________________________________________________________________________________________________
batch_1 (BatchNormalization)    (None, 512)          2048        fc1[0][0]                        
__________________________________________________________________________________________________
dropout_1 (Dropout)             (None, 512)          0           batch_1[0][0]                    
__________________________________________________________________________________________________
fc2 (Dense)                     (None, 512)          262656      dropout_1[0][0]                  
__________________________________________________________________________________________________
batch_2 (BatchNormalization)    (None, 512)          2048        fc2[0][0]                        
__________________________________________________________________________________________________
dropout_2 (Dropout)             (None, 512)          0           batch_2[0][0]                    
__________________________________________________________________________________________________
fc28 (Dense)                    (None, 28)           14364       dropout_2[0][0]                  
==================================================================================================
Total params: 23,758,940
Trainable params: 23,739,740
Non-trainable params: 19,200
__________________________________________________________________________________________________
Training model on 84510 samples, validate on 21167 samples
Epoch 1/100
 - 5708s - loss: 0.3236 - binary_accuracy: 0.8669 - val_loss: 0.1586 - val_binary_accuracy: 0.9491
…
Layer (type)                    Output Shape         Param #     Connected to                     
==================================================================================================
data (InputLayer)               (None, 1024, 1024, 3 0                                            
__________________________________________________________________________________________________
conv1_pad (ZeroPadding2D)       (None, 1030, 1030, 3 0           data[0][0]                       
__________________________________________________________________________________________________
conv1 (Conv2D)                  (None, 512, 512, 64) 9472        conv1_pad[0][0]                  
__________________________________________________________________________________________________
bn_conv1 (BatchNormalization)   (None, 512, 512, 64) 256         conv1[0][0]                      
__________________________________________________________________________________________________
activation_1 (Activation)       (None, 512, 512, 64) 0           bn_conv1[0][0]                   
__________________________________________________________________________________________________
pool1_pad (ZeroPadding2D)       (None, 514, 514, 64) 0           activation_1[0][0]               
__________________________________________________________________________________________________
max_pooling2d_1 (MaxPooling2D)  (None, 256, 256, 64) 0           pool1_pad[0][0]                  
__________________________________________________________________________________________________
res2a_branch2a (Conv2D)         (None, 256, 256, 64) 36928       max_pooling2d_1[0][0]            
__________________________________________________________________________________________________
bn2a_branch2a (BatchNormalizati (None, 256, 256, 64) 256         res2a_branch2a[0][0]             
__________________________________________________________________________________________________
activation_2 (Activation)       (None, 256, 256, 64) 0           bn2a_branch2a[0][0]              
__________________________________________________________________________________________________
res2a_branch2b (Conv2D)         (None, 256, 256, 64) 36928       activation_2[0][0]               
__________________________________________________________________________________________________
bn2a_branch2b (BatchNormalizati (None, 256, 256, 64) 256         res2a_branch2b[0][0]             
__________________________________________________________________________________________________
res2a_branch1 (Conv2D)          (None, 256, 256, 64) 36928       max_pooling2d_1[0][0]            
__________________________________________________________________________________________________
activation_3 (Activation)       (None, 256, 256, 64) 0           bn2a_branch2b[0][0]              
__________________________________________________________________________________________________
bn2a_branch1 (BatchNormalizatio (None, 256, 256, 64) 256         res2a_branch1[0][0]              
__________________________________________________________________________________________________
add_1 (Add)                     (None, 256, 256, 64) 0           activation_3[0][0]               
                                                                 bn2a_branch1[0][0]               
__________________________________________________________________________________________________
activation_4 (Activation)       (None, 256, 256, 64) 0           add_1[0][0]                      
__________________________________________________________________________________________________
res2b_branch2a (Conv2D)         (None, 256, 256, 64) 36928       activation_4[0][0]               
__________________________________________________________________________________________________
bn2b_branch2a (BatchNormalizati (None, 256, 256, 64) 256         res2b_branch2a[0][0]             
__________________________________________________________________________________________________
activation_5 (Activation)       (None, 256, 256, 64) 0           bn2b_branch2a[0][0]              
__________________________________________________________________________________________________
res2b_branch2b (Conv2D)         (None, 256, 256, 64) 36928       activation_5[0][0]               
__________________________________________________________________________________________________
bn2b_branch2b (BatchNormalizati (None, 256, 256, 64) 256         res2b_branch2b[0][0]             
__________________________________________________________________________________________________
activation_6 (Activation)       (None, 256, 256, 64) 0           bn2b_branch2b[0][0]              
__________________________________________________________________________________________________
add_2 (Add)                     (None, 256, 256, 64) 0           activation_6[0][0]               
                                                                 activation_4[0][0]               
__________________________________________________________________________________________________
activation_7 (Activation)       (None, 256, 256, 64) 0           add_2[0][0]                      
__________________________________________________________________________________________________
res2c_branch2a (Conv2D)         (None, 256, 256, 64) 36928       activation_7[0][0]               
__________________________________________________________________________________________________
bn2c_branch2a (BatchNormalizati (None, 256, 256, 64) 256         res2c_branch2a[0][0]             
__________________________________________________________________________________________________
activation_8 (Activation)       (None, 256, 256, 64) 0           bn2c_branch2a[0][0]              
__________________________________________________________________________________________________
res2c_branch2b (Conv2D)         (None, 256, 256, 64) 36928       activation_8[0][0]               
__________________________________________________________________________________________________
bn2c_branch2b (BatchNormalizati (None, 256, 256, 64) 256         res2c_branch2b[0][0]             
__________________________________________________________________________________________________
activation_9 (Activation)       (None, 256, 256, 64) 0           bn2c_branch2b[0][0]              
__________________________________________________________________________________________________
add_3 (Add)                     (None, 256, 256, 64) 0           activation_9[0][0]               
                                                                 activation_7[0][0]               
__________________________________________________________________________________________________
activation_10 (Activation)      (None, 256, 256, 64) 0           add_3[0][0]                      
__________________________________________________________________________________________________
res3a_branch2a (Conv2D)         (None, 128, 128, 128 73856       activation_10[0][0]              
__________________________________________________________________________________________________
bn3a_branch2a (BatchNormalizati (None, 128, 128, 128 512         res3a_branch2a[0][0]             
…
__________________________________________________________________________________________________
add_7 (Add)                     (None, 128, 128, 128 0           activation_21[0][0]              
                                                                 activation_19[0][0]              
__________________________________________________________________________________________________
activation_22 (Activation)      (None, 128, 128, 128 0           add_7[0][0]                      
__________________________________________________________________________________________________
res4a_branch2a (Conv2D)         (None, 64, 64, 256)  295168      activation_22[0][0]              
__________________________________________________________________________________________________
bn4a_branch2a (BatchNormalizati (None, 64, 64, 256)  1024        res4a_branch2a[0][0]             
__________________________________________________________________________________________________
activation_23 (Activation)      (None, 64, 64, 256)  0           bn4a_branch2a[0][0]              
__________________________________________________________________________________________________
res4a_branch2b (Conv2D)         (None, 64, 64, 256)  590080      activation_23[0][0]              
__________________________________________________________________________________________________
bn4a_branch2b (BatchNormalizati (None, 64, 64, 256)  1024        res4a_branch2b[0][0]             
__________________________________________________________________________________________________
res4a_branch1 (Conv2D)          (None, 64, 64, 256)  295168      activation_22[0][0]              
__________________________________________________________________________________________________
activation_24 (Activation)      (None, 64, 64, 256)  0           bn4a_branch2b[0][0]              
__________________________________________________________________________________________________
bn4a_branch1 (BatchNormalizatio (None, 64, 64, 256)  1024        res4a_branch1[0][0]              
__________________________________________________________________________________________________
add_8 (Add)                     (None, 64, 64, 256)  0           activation_24[0][0]              
                                                                 bn4a_branch1[0][0]               
__________________________________________________________________________________________________
activation_25 (Activation)      (None, 64, 64, 256)  0           add_8[0][0]                      
__________________________________________________________________________________________________
res4b_branch2a (Conv2D)         (None, 64, 64, 256)  590080      activation_25[0][0]              
__________________________________________________________________________________________________
bn4b_branch2a (BatchNormalizati (None, 64, 64, 256)  1024        res4b_branch2a[0][0]             
__________________________________________________________________________________________________
activation_26 (Activation)      (None, 64, 64, 256)  0           bn4b_branch2a[0][0]              
__________________________________________________________________________________________________
res4b_branch2b (Conv2D)         (None, 64, 64, 256)  590080      activation_26[0][0]              
__________________________________________________________________________________________________
bn4b_branch2b (BatchNormalizati (None, 64, 64, 256)  1024        res4b_branch2b[0][0]             
__________________________________________________________________________________________________
activation_27 (Activation)      (None, 64, 64, 256)  0           bn4b_branch2b[0][0]              
__________________________________________________________________________________________________
add_9 (Add)                     (None, 64, 64, 256)  0           activation_27[0][0]              
                                                                 activation_25[0][0]              
__________________________________________________________________________________________________
activation_28 (Activation)      (None, 64, 64, 256)  0           add_9[0][0]                      
__________________________________________________________________________________________________
res4c_branch2a (Conv2D)         (None, 64, 64, 256)  590080      activation_28[0][0]              
__________________________________________________________________________________________________
bn4c_branch2a (BatchNormalizati (None, 64, 64, 256)  1024        res4c_branch2a[0][0]             
__________________________________________________________________________________________________
activation_29 (Activation)      (None, 64, 64, 256)  0           bn4c_branch2a[0][0]              
__________________________________________________________________________________________________
res4c_branch2b (Conv2D)         (None, 64, 64, 256)  590080      activation_29[0][0]              
__________________________________________________________________________________________________
bn4c_branch2b (BatchNormalizati (None, 64, 64, 256)  1024        res4c_branch2b[0][0]             
__________________________________________________________________________________________________
activation_30 (Activation)      (None, 64, 64, 256)  0           bn4c_branch2b[0][0]              
__________________________________________________________________________________________________
add_10 (Add)                    (None, 64, 64, 256)  0           activation_30[0][0]              
                                                                 activation_28[0][0]              
__________________________________________________________________________________________________
activation_31 (Activation)      (None, 64, 64, 256)  0           add_10[0][0]                     
__________________________________________________________________________________________________
res4d_branch2a (Conv2D)         (None, 64, 64, 256)  590080      activation_31[0][0]              
__________________________________________________________________________________________________
bn4d_branch2a (BatchNormalizati (None, 64, 64, 256)  1024        res4d_branch2a[0][0]             
__________________________________________________________________________________________________
activation_32 (Activation)      (None, 64, 64, 256)  0           bn4d_branch2a[0][0]              
__________________________________________________________________________________________________
res4d_branch2b (Conv2D)         (None, 64, 64, 256)  590080      activation_32[0][0]              
__________________________________________________________________________________________________
bn4d_branch2b (BatchNormalizati (None, 64, 64, 256)  1024        res4d_branch2b[0][0]             
__________________________________________________________________________________________________
activation_33 (Activation)      (None, 64, 64, 256)  0           bn4d_branch2b[0][0]              
__________________________________________________________________________________________________
add_11 (Add)                    (None, 64, 64, 256)  0           activation_33[0][0]              
                                                                 activation_31[0][0]              
__________________________________________________________________________________________________
activation_34 (Activation)      (None, 64, 64, 256)  0           add_11[0][0]                     
__________________________________________________________________________________________________
res4e_branch2a (Conv2D)         (None, 64, 64, 256)  590080      activation_34[0][0]              
__________________________________________________________________________________________________
bn4e_branch2a (BatchNormalizati (None, 64, 64, 256)  1024        res4e_branch2a[0][0]             
__________________________________________________________________________________________________
activation_35 (Activation)      (None, 64, 64, 256)  0           bn4e_branch2a[0][0]              
__________________________________________________________________________________________________
res4e_branch2b (Conv2D)         (None, 64, 64, 256)  590080      activation_35[0][0]              
__________________________________________________________________________________________________
bn4e_branch2b (BatchNormalizati (None, 64, 64, 256)  1024        res4e_branch2b[0][0]             
__________________________________________________________________________________________________
activation_36 (Activation)      (None, 64, 64, 256)  0           bn4e_branch2b[0][0]              
__________________________________________________________________________________________________
add_12 (Add)                    (None, 64, 64, 256)  0           activation_36[0][0]              
                                                                 activation_34[0][0]              
__________________________________________________________________________________________________
activation_37 (Activation)      (None, 64, 64, 256)  0           add_12[0][0]                     
__________________________________________________________________________________________________
res4f_branch2a (Conv2D)         (None, 64, 64, 256)  590080      activation_37[0][0]              
__________________________________________________________________________________________________
bn4f_branch2a (BatchNormalizati (None, 64, 64, 256)  1024        res4f_branch2a[0][0]             
__________________________________________________________________________________________________
activation_38 (Activation)      (None, 64, 64, 256)  0           bn4f_branch2a[0][0]              
__________________________________________________________________________________________________
res4f_branch2b (Conv2D)         (None, 64, 64, 256)  590080      activation_38[0][0]              
__________________________________________________________________________________________________
bn4f_branch2b (BatchNormalizati (None, 64, 64, 256)  1024        res4f_branch2b[0][0]             
__________________________________________________________________________________________________
activation_39 (Activation)      (None, 64, 64, 256)  0           bn4f_branch2b[0][0]              
__________________________________________________________________________________________________
add_13 (Add)                    (None, 64, 64, 256)  0           activation_39[0][0]              
                                                                 activation_37[0][0]              
__________________________________________________________________________________________________
activation_40 (Activation)      (None, 64, 64, 256)  0           add_13[0][0]                     
__________________________________________________________________________________________________
res5a_branch2a (Conv2D)         (None, 32, 32, 512)  1180160     activation_40[0][0]              
__________________________________________________________________________________________________
bn5a_branch2a (BatchNormalizati (None, 32, 32, 512)  2048        res5a_branch2a[0][0]             
__________________________________________________________________________________________________
activation_41 (Activation)      (None, 32, 32, 512)  0           bn5a_branch2a[0][0]              
__________________________________________________________________________________________________
res5a_branch2b (Conv2D)         (None, 32, 32, 512)  2359808     activation_41[0][0]              
__________________________________________________________________________________________________
bn5a_branch2b (BatchNormalizati (None, 32, 32, 512)  2048        res5a_branch2b[0][0]             
__________________________________________________________________________________________________
res5a_branch1 (Conv2D)          (None, 32, 32, 512)  1180160     activation_40[0][0]              
__________________________________________________________________________________________________
activation_42 (Activation)      (None, 32, 32, 512)  0           bn5a_branch2b[0][0]              
__________________________________________________________________________________________________
bn5a_branch1 (BatchNormalizatio (None, 32, 32, 512)  2048        res5a_branch1[0][0]              
__________________________________________________________________________________________________
add_14 (Add)                    (None, 32, 32, 512)  0           activation_42[0][0]              
                                                                 bn5a_branch1[0][0]               
__________________________________________________________________________________________________
activation_43 (Activation)      (None, 32, 32, 512)  0           add_14[0][0]                     
__________________________________________________________________________________________________
res5b_branch2a (Conv2D)         (None, 32, 32, 512)  2359808     activation_43[0][0]              
__________________________________________________________________________________________________
bn5b_branch2a (BatchNormalizati (None, 32, 32, 512)  2048        res5b_branch2a[0][0]             
__________________________________________________________________________________________________
activation_44 (Activation)      (None, 32, 32, 512)  0           bn5b_branch2a[0][0]              
__________________________________________________________________________________________________
res5b_branch2b (Conv2D)         (None, 32, 32, 512)  2359808     activation_44[0][0]              
__________________________________________________________________________________________________
bn5b_branch2b (BatchNormalizati (None, 32, 32, 512)  2048        res5b_branch2b[0][0]             
__________________________________________________________________________________________________
activation_45 (Activation)      (None, 32, 32, 512)  0           bn5b_branch2b[0][0]              
__________________________________________________________________________________________________
add_15 (Add)                    (None, 32, 32, 512)  0           activation_45[0][0]              
                                                                 activation_43[0][0]              
__________________________________________________________________________________________________
activation_46 (Activation)      (None, 32, 32, 512)  0           add_15[0][0]                     
__________________________________________________________________________________________________
res5c_branch2a (Conv2D)         (None, 32, 32, 512)  2359808     activation_46[0][0]              
__________________________________________________________________________________________________
bn5c_branch2a (BatchNormalizati (None, 32, 32, 512)  2048        res5c_branch2a[0][0]             
__________________________________________________________________________________________________
activation_47 (Activation)      (None, 32, 32, 512)  0           bn5c_branch2a[0][0]              
__________________________________________________________________________________________________
res5c_branch2b (Conv2D)         (None, 32, 32, 512)  2359808     activation_47[0][0]              
__________________________________________________________________________________________________
bn5c_branch2b (BatchNormalizati (None, 32, 32, 512)  2048        res5c_branch2b[0][0]             
__________________________________________________________________________________________________
activation_48 (Activation)      (None, 32, 32, 512)  0           bn5c_branch2b[0][0]              
__________________________________________________________________________________________________
add_16 (Add)                    (None, 32, 32, 512)  0           activation_48[0][0]              
                                                                 activation_46[0][0]              
__________________________________________________________________________________________________
activation_49 (Activation)      (None, 32, 32, 512)  0           add_16[0][0]                     
__________________________________________________________________________________________________
global_average_pooling2d_1 (Glo (None, 512)          0           activation_49[0][0]              
__________________________________________________________________________________________________
fc1 (Dense)                     (None, 512)          262656      global_average_pooling2d_1[0][0] 
__________________________________________________________________________________________________
batch_1 (BatchNormalization)    (None, 512)          2048        fc1[0][0]                        
__________________________________________________________________________________________________
dropout_1 (Dropout)             (None, 512)          0           batch_1[0][0]                    
__________________________________________________________________________________________________
fc2 (Dense)                     (None, 512)          262656      dropout_1[0][0]                  
__________________________________________________________________________________________________
batch_2 (BatchNormalization)    (None, 512)          2048        fc2[0][0]                        
__________________________________________________________________________________________________
dropout_2 (Dropout)             (None, 512)          0           batch_2[0][0]                    
__________________________________________________________________________________________________
fc28 (Dense)                    (None, 28)           14364       dropout_2[0][0]                  
==================================================================================================
Total params: 23,267,420
Trainable params: 23,248,220
Non-trainable params: 19,200
__________________________________________________________________________________________________
Training model on 84510 samples, validate on 21167 samples
Epoch 1/100
 - 7408s - loss: 0.2250 - binary_accuracy: 0.9158 - val_loss: 0.1295 - val_binary_accuracy: 0.9563
…
